{
  "format": "graph-model",
  "generatedBy": "2.17.0",
  "convertedBy": "TensorFlow.js Converter v4.20.0",
  "signature": { "outputs": { "Identity:0": { "name": "Identity:0" } } },
  "modelTopology": {
    "node": [
      {
        "name": "ConstantFolding/PartitionedCall/model_27/tf.math.divide_1/truediv_recip",
        "op": "Const",
        "attr": {
          "dtype": { "type": "DT_FLOAT" },
          "value": {
            "tensor": {
              "dtype": "DT_FLOAT",
              "tensorShape": {
                "dim": [{ "size": "1" }, { "size": "1" }, { "size": "1" }]
              }
            }
          }
        }
      },
      {
        "name": "27697",
        "op": "Const",
        "attr": {
          "dtype": { "type": "DT_FLOAT" },
          "value": {
            "tensor": {
              "dtype": "DT_FLOAT",
              "tensorShape": {
                "dim": [{ "size": "1" }, { "size": "2" }, { "size": "8400" }]
              }
            }
          }
        }
      },
      {
        "name": "27689",
        "op": "Const",
        "attr": {
          "value": {
            "tensor": {
              "dtype": "DT_INT64",
              "tensorShape": { "dim": [{ "size": "3" }] }
            }
          },
          "dtype": { "type": "DT_INT64" }
        }
      },
      {
        "name": "27691",
        "op": "Const",
        "attr": {
          "value": {
            "tensor": {
              "dtype": "DT_INT64",
              "tensorShape": { "dim": [{ "size": "3" }] }
            }
          },
          "dtype": { "type": "DT_INT64" }
        }
      },
      {
        "name": "PartitionedCall/model_27/tf.strided_slice_39/ones_like",
        "op": "Const",
        "attr": {
          "value": {
            "tensor": {
              "dtype": "DT_INT64",
              "tensorShape": { "dim": [{ "size": "3" }] }
            }
          },
          "dtype": { "type": "DT_INT64" }
        }
      },
      {
        "name": "27699",
        "op": "Const",
        "attr": {
          "dtype": { "type": "DT_FLOAT" },
          "value": {
            "tensor": {
              "dtype": "DT_FLOAT",
              "tensorShape": {
                "dim": [{ "size": "1" }, { "size": "2" }, { "size": "8400" }]
              }
            }
          }
        }
      },
      {
        "name": "27683",
        "op": "Const",
        "attr": {
          "value": {
            "tensor": {
              "dtype": "DT_INT64",
              "tensorShape": { "dim": [{ "size": "3" }] }
            }
          },
          "dtype": { "type": "DT_INT64" }
        }
      },
      {
        "name": "27685",
        "op": "Const",
        "attr": {
          "dtype": { "type": "DT_INT64" },
          "value": {
            "tensor": {
              "dtype": "DT_INT64",
              "tensorShape": { "dim": [{ "size": "3" }] }
            }
          }
        }
      },
      {
        "name": "PartitionedCall/model_27/tf.strided_slice_36/StridedSlice/strides",
        "op": "Const",
        "attr": {
          "dtype": { "type": "DT_INT64" },
          "value": {
            "tensor": {
              "dtype": "DT_INT64",
              "tensorShape": { "dim": [{ "size": "3" }] }
            }
          }
        }
      },
      {
        "name": "PartitionedCall/model_27/tf.reshape_26/Reshape/shape",
        "op": "Const",
        "attr": {
          "dtype": { "type": "DT_INT32" },
          "value": {
            "tensor": {
              "dtype": "DT_INT32",
              "tensorShape": { "dim": [{ "size": "4" }] }
            }
          }
        }
      },
      {
        "name": "PartitionedCall/model_27/tf.compat.v1.transpose_47/transpose/perm",
        "op": "Const",
        "attr": {
          "dtype": { "type": "DT_INT32" },
          "value": {
            "tensor": {
              "dtype": "DT_INT32",
              "tensorShape": { "dim": [{ "size": "4" }] }
            }
          }
        }
      },
      {
        "name": "PartitionedCall/model_27/tf.compat.v1.transpose_48/transpose/perm",
        "op": "Const",
        "attr": {
          "value": {
            "tensor": {
              "dtype": "DT_INT32",
              "tensorShape": { "dim": [{ "size": "4" }] }
            }
          },
          "dtype": { "type": "DT_INT32" }
        }
      },
      {
        "name": "27687",
        "op": "Const",
        "attr": {
          "value": {
            "tensor": {
              "dtype": "DT_FLOAT",
              "tensorShape": {
                "dim": [
                  { "size": "1" },
                  { "size": "1" },
                  { "size": "16" },
                  { "size": "1" }
                ]
              }
            }
          },
          "dtype": { "type": "DT_FLOAT" }
        }
      },
      {
        "name": "PartitionedCall/model_27/tf.compat.v1.transpose_53/transpose/perm",
        "op": "Const",
        "attr": {
          "value": {
            "tensor": {
              "dtype": "DT_INT32",
              "tensorShape": { "dim": [{ "size": "4" }] }
            }
          },
          "dtype": { "type": "DT_INT32" }
        }
      },
      {
        "name": "PartitionedCall/model_27/tf.reshape_29/Reshape/shape",
        "op": "Const",
        "attr": {
          "value": {
            "tensor": {
              "dtype": "DT_INT32",
              "tensorShape": { "dim": [{ "size": "3" }] }
            }
          },
          "dtype": { "type": "DT_INT32" }
        }
      },
      {
        "name": "27693",
        "op": "Const",
        "attr": {
          "dtype": { "type": "DT_INT64" },
          "value": {
            "tensor": {
              "dtype": "DT_INT64",
              "tensorShape": { "dim": [{ "size": "3" }] }
            }
          }
        }
      },
      {
        "name": "27695",
        "op": "Const",
        "attr": {
          "dtype": { "type": "DT_INT64" },
          "value": {
            "tensor": {
              "dtype": "DT_INT64",
              "tensorShape": { "dim": [{ "size": "3" }] }
            }
          }
        }
      },
      {
        "name": "PartitionedCall/model_27/tf.strided_slice_38/ones_like",
        "op": "Const",
        "attr": {
          "value": {
            "tensor": {
              "dtype": "DT_INT64",
              "tensorShape": { "dim": [{ "size": "3" }] }
            }
          },
          "dtype": { "type": "DT_INT64" }
        }
      },
      {
        "name": "PartitionedCall/model_27/tf.concat_42/concat/axis",
        "op": "Const",
        "attr": {
          "dtype": { "type": "DT_INT32" },
          "value": { "tensor": { "dtype": "DT_INT32", "tensorShape": {} } }
        }
      },
      {
        "name": "PartitionedCall/model_27/tf.math.multiply_505/Mul/y",
        "op": "Const",
        "attr": {
          "dtype": { "type": "DT_FLOAT" },
          "value": {
            "tensor": {
              "dtype": "DT_FLOAT",
              "tensorShape": {
                "dim": [{ "size": "1" }, { "size": "1" }, { "size": "8400" }]
              }
            }
          }
        }
      },
      {
        "name": "27621",
        "op": "Const",
        "attr": {
          "dtype": { "type": "DT_FLOAT" },
          "value": {
            "tensor": {
              "dtype": "DT_FLOAT",
              "tensorShape": {
                "dim": [
                  { "size": "3" },
                  { "size": "3" },
                  { "size": "128" },
                  { "size": "64" }
                ]
              }
            }
          }
        }
      },
      {
        "name": "27633",
        "op": "Const",
        "attr": {
          "dtype": { "type": "DT_FLOAT" },
          "value": {
            "tensor": {
              "dtype": "DT_FLOAT",
              "tensorShape": { "dim": [{ "size": "64" }] }
            }
          }
        }
      },
      {
        "name": "27645",
        "op": "Const",
        "attr": {
          "dtype": { "type": "DT_FLOAT" },
          "value": {
            "tensor": {
              "dtype": "DT_FLOAT",
              "tensorShape": {
                "dim": [
                  { "size": "3" },
                  { "size": "3" },
                  { "size": "64" },
                  { "size": "64" }
                ]
              }
            }
          }
        }
      },
      {
        "name": "27657",
        "op": "Const",
        "attr": {
          "value": {
            "tensor": {
              "dtype": "DT_FLOAT",
              "tensorShape": { "dim": [{ "size": "64" }] }
            }
          },
          "dtype": { "type": "DT_FLOAT" }
        }
      },
      {
        "name": "27669",
        "op": "Const",
        "attr": {
          "dtype": { "type": "DT_FLOAT" },
          "value": {
            "tensor": {
              "dtype": "DT_FLOAT",
              "tensorShape": {
                "dim": [
                  { "size": "1" },
                  { "size": "1" },
                  { "size": "64" },
                  { "size": "64" }
                ]
              }
            }
          }
        }
      },
      {
        "name": "27679",
        "op": "Const",
        "attr": {
          "value": {
            "tensor": {
              "dtype": "DT_FLOAT",
              "tensorShape": { "dim": [{ "size": "64" }] }
            }
          },
          "dtype": { "type": "DT_FLOAT" }
        }
      },
      {
        "name": "27619",
        "op": "Const",
        "attr": {
          "value": {
            "tensor": {
              "dtype": "DT_FLOAT",
              "tensorShape": {
                "dim": [
                  { "size": "3" },
                  { "size": "3" },
                  { "size": "128" },
                  { "size": "128" }
                ]
              }
            }
          },
          "dtype": { "type": "DT_FLOAT" }
        }
      },
      {
        "name": "27631",
        "op": "Const",
        "attr": {
          "dtype": { "type": "DT_FLOAT" },
          "value": {
            "tensor": {
              "dtype": "DT_FLOAT",
              "tensorShape": { "dim": [{ "size": "128" }] }
            }
          }
        }
      },
      {
        "name": "27643",
        "op": "Const",
        "attr": {
          "dtype": { "type": "DT_FLOAT" },
          "value": {
            "tensor": {
              "dtype": "DT_FLOAT",
              "tensorShape": {
                "dim": [
                  { "size": "3" },
                  { "size": "3" },
                  { "size": "128" },
                  { "size": "128" }
                ]
              }
            }
          }
        }
      },
      {
        "name": "27655",
        "op": "Const",
        "attr": {
          "dtype": { "type": "DT_FLOAT" },
          "value": {
            "tensor": {
              "dtype": "DT_FLOAT",
              "tensorShape": { "dim": [{ "size": "128" }] }
            }
          }
        }
      },
      {
        "name": "27667",
        "op": "Const",
        "attr": {
          "dtype": { "type": "DT_FLOAT" },
          "value": {
            "tensor": {
              "dtype": "DT_FLOAT",
              "tensorShape": {
                "dim": [
                  { "size": "1" },
                  { "size": "1" },
                  { "size": "128" },
                  { "size": "5" }
                ]
              }
            }
          }
        }
      },
      {
        "name": "27681",
        "op": "Const",
        "attr": {
          "dtype": { "type": "DT_FLOAT" },
          "value": {
            "tensor": {
              "dtype": "DT_FLOAT",
              "tensorShape": { "dim": [{ "size": "5" }] }
            }
          }
        }
      },
      {
        "name": "PartitionedCall/model_27/tf.concat_32/concat/axis",
        "op": "Const",
        "attr": {
          "value": { "tensor": { "dtype": "DT_INT32", "tensorShape": {} } },
          "dtype": { "type": "DT_INT32" }
        }
      },
      {
        "name": "PartitionedCall/model_27/tf.compat.v1.transpose_30/transpose/perm",
        "op": "Const",
        "attr": {
          "value": {
            "tensor": {
              "dtype": "DT_INT32",
              "tensorShape": { "dim": [{ "size": "4" }] }
            }
          },
          "dtype": { "type": "DT_INT32" }
        }
      },
      {
        "name": "PartitionedCall/model_27/tf.reshape_17/Reshape/shape",
        "op": "Const",
        "attr": {
          "value": {
            "tensor": {
              "dtype": "DT_INT32",
              "tensorShape": { "dim": [{ "size": "3" }] }
            }
          },
          "dtype": { "type": "DT_INT32" }
        }
      },
      {
        "name": "27617",
        "op": "Const",
        "attr": {
          "value": {
            "tensor": {
              "dtype": "DT_FLOAT",
              "tensorShape": {
                "dim": [
                  { "size": "3" },
                  { "size": "3" },
                  { "size": "256" },
                  { "size": "64" }
                ]
              }
            }
          },
          "dtype": { "type": "DT_FLOAT" }
        }
      },
      {
        "name": "27629",
        "op": "Const",
        "attr": {
          "dtype": { "type": "DT_FLOAT" },
          "value": {
            "tensor": {
              "dtype": "DT_FLOAT",
              "tensorShape": { "dim": [{ "size": "64" }] }
            }
          }
        }
      },
      {
        "name": "27641",
        "op": "Const",
        "attr": {
          "dtype": { "type": "DT_FLOAT" },
          "value": {
            "tensor": {
              "dtype": "DT_FLOAT",
              "tensorShape": {
                "dim": [
                  { "size": "3" },
                  { "size": "3" },
                  { "size": "64" },
                  { "size": "64" }
                ]
              }
            }
          }
        }
      },
      {
        "name": "27653",
        "op": "Const",
        "attr": {
          "dtype": { "type": "DT_FLOAT" },
          "value": {
            "tensor": {
              "dtype": "DT_FLOAT",
              "tensorShape": { "dim": [{ "size": "64" }] }
            }
          }
        }
      },
      {
        "name": "27665",
        "op": "Const",
        "attr": {
          "value": {
            "tensor": {
              "dtype": "DT_FLOAT",
              "tensorShape": {
                "dim": [
                  { "size": "1" },
                  { "size": "1" },
                  { "size": "64" },
                  { "size": "64" }
                ]
              }
            }
          },
          "dtype": { "type": "DT_FLOAT" }
        }
      },
      {
        "name": "27675",
        "op": "Const",
        "attr": {
          "dtype": { "type": "DT_FLOAT" },
          "value": {
            "tensor": {
              "dtype": "DT_FLOAT",
              "tensorShape": { "dim": [{ "size": "64" }] }
            }
          }
        }
      },
      {
        "name": "27615",
        "op": "Const",
        "attr": {
          "dtype": { "type": "DT_FLOAT" },
          "value": {
            "tensor": {
              "dtype": "DT_FLOAT",
              "tensorShape": {
                "dim": [
                  { "size": "3" },
                  { "size": "3" },
                  { "size": "256" },
                  { "size": "128" }
                ]
              }
            }
          }
        }
      },
      {
        "name": "27627",
        "op": "Const",
        "attr": {
          "dtype": { "type": "DT_FLOAT" },
          "value": {
            "tensor": {
              "dtype": "DT_FLOAT",
              "tensorShape": { "dim": [{ "size": "128" }] }
            }
          }
        }
      },
      {
        "name": "27639",
        "op": "Const",
        "attr": {
          "value": {
            "tensor": {
              "dtype": "DT_FLOAT",
              "tensorShape": {
                "dim": [
                  { "size": "3" },
                  { "size": "3" },
                  { "size": "128" },
                  { "size": "128" }
                ]
              }
            }
          },
          "dtype": { "type": "DT_FLOAT" }
        }
      },
      {
        "name": "27651",
        "op": "Const",
        "attr": {
          "value": {
            "tensor": {
              "dtype": "DT_FLOAT",
              "tensorShape": { "dim": [{ "size": "128" }] }
            }
          },
          "dtype": { "type": "DT_FLOAT" }
        }
      },
      {
        "name": "27663",
        "op": "Const",
        "attr": {
          "dtype": { "type": "DT_FLOAT" },
          "value": {
            "tensor": {
              "dtype": "DT_FLOAT",
              "tensorShape": {
                "dim": [
                  { "size": "1" },
                  { "size": "1" },
                  { "size": "128" },
                  { "size": "5" }
                ]
              }
            }
          }
        }
      },
      {
        "name": "27677",
        "op": "Const",
        "attr": {
          "value": {
            "tensor": {
              "dtype": "DT_FLOAT",
              "tensorShape": { "dim": [{ "size": "5" }] }
            }
          },
          "dtype": { "type": "DT_FLOAT" }
        }
      },
      {
        "name": "PartitionedCall/model_27/tf.concat_35/concat/axis",
        "op": "Const",
        "attr": {
          "dtype": { "type": "DT_INT32" },
          "value": { "tensor": { "dtype": "DT_INT32", "tensorShape": {} } }
        }
      },
      {
        "name": "PartitionedCall/model_27/tf.compat.v1.transpose_35/transpose/perm",
        "op": "Const",
        "attr": {
          "value": {
            "tensor": {
              "dtype": "DT_INT32",
              "tensorShape": { "dim": [{ "size": "4" }] }
            }
          },
          "dtype": { "type": "DT_INT32" }
        }
      },
      {
        "name": "PartitionedCall/model_27/tf.reshape_20/Reshape/shape",
        "op": "Const",
        "attr": {
          "value": {
            "tensor": {
              "dtype": "DT_INT32",
              "tensorShape": { "dim": [{ "size": "3" }] }
            }
          },
          "dtype": { "type": "DT_INT32" }
        }
      },
      {
        "name": "27613",
        "op": "Const",
        "attr": {
          "value": {
            "tensor": {
              "dtype": "DT_FLOAT",
              "tensorShape": {
                "dim": [
                  { "size": "3" },
                  { "size": "3" },
                  { "size": "512" },
                  { "size": "64" }
                ]
              }
            }
          },
          "dtype": { "type": "DT_FLOAT" }
        }
      },
      {
        "name": "27625",
        "op": "Const",
        "attr": {
          "value": {
            "tensor": {
              "dtype": "DT_FLOAT",
              "tensorShape": { "dim": [{ "size": "64" }] }
            }
          },
          "dtype": { "type": "DT_FLOAT" }
        }
      },
      {
        "name": "27637",
        "op": "Const",
        "attr": {
          "value": {
            "tensor": {
              "dtype": "DT_FLOAT",
              "tensorShape": {
                "dim": [
                  { "size": "3" },
                  { "size": "3" },
                  { "size": "64" },
                  { "size": "64" }
                ]
              }
            }
          },
          "dtype": { "type": "DT_FLOAT" }
        }
      },
      {
        "name": "27649",
        "op": "Const",
        "attr": {
          "value": {
            "tensor": {
              "dtype": "DT_FLOAT",
              "tensorShape": { "dim": [{ "size": "64" }] }
            }
          },
          "dtype": { "type": "DT_FLOAT" }
        }
      },
      {
        "name": "27661",
        "op": "Const",
        "attr": {
          "dtype": { "type": "DT_FLOAT" },
          "value": {
            "tensor": {
              "dtype": "DT_FLOAT",
              "tensorShape": {
                "dim": [
                  { "size": "1" },
                  { "size": "1" },
                  { "size": "64" },
                  { "size": "64" }
                ]
              }
            }
          }
        }
      },
      {
        "name": "27671",
        "op": "Const",
        "attr": {
          "value": {
            "tensor": {
              "dtype": "DT_FLOAT",
              "tensorShape": { "dim": [{ "size": "64" }] }
            }
          },
          "dtype": { "type": "DT_FLOAT" }
        }
      },
      {
        "name": "27603",
        "op": "Const",
        "attr": {
          "dtype": { "type": "DT_INT64" },
          "value": {
            "tensor": {
              "dtype": "DT_INT64",
              "tensorShape": { "dim": [{ "size": "4" }] }
            }
          }
        }
      },
      {
        "name": "27605",
        "op": "Const",
        "attr": {
          "dtype": { "type": "DT_INT64" },
          "value": {
            "tensor": {
              "dtype": "DT_INT64",
              "tensorShape": { "dim": [{ "size": "4" }] }
            }
          }
        }
      },
      {
        "name": "PartitionedCall/model_27/tf.strided_slice_34/ones_like",
        "op": "Const",
        "attr": {
          "dtype": { "type": "DT_INT64" },
          "value": {
            "tensor": {
              "dtype": "DT_INT64",
              "tensorShape": { "dim": [{ "size": "4" }] }
            }
          }
        }
      },
      {
        "name": "27573",
        "op": "Const",
        "attr": {
          "dtype": { "type": "DT_INT64" },
          "value": {
            "tensor": {
              "dtype": "DT_INT64",
              "tensorShape": { "dim": [{ "size": "4" }] }
            }
          }
        }
      },
      {
        "name": "27575",
        "op": "Const",
        "attr": {
          "value": {
            "tensor": {
              "dtype": "DT_INT64",
              "tensorShape": { "dim": [{ "size": "4" }] }
            }
          },
          "dtype": { "type": "DT_INT64" }
        }
      },
      {
        "name": "PartitionedCall/model_27/tf.strided_slice_32/ones_like",
        "op": "Const",
        "attr": {
          "value": {
            "tensor": {
              "dtype": "DT_INT64",
              "tensorShape": { "dim": [{ "size": "4" }] }
            }
          },
          "dtype": { "type": "DT_INT64" }
        }
      },
      {
        "name": "27543",
        "op": "Const",
        "attr": {
          "dtype": { "type": "DT_INT64" },
          "value": {
            "tensor": {
              "dtype": "DT_INT64",
              "tensorShape": { "dim": [{ "size": "4" }] }
            }
          }
        }
      },
      {
        "name": "27545",
        "op": "Const",
        "attr": {
          "dtype": { "type": "DT_INT64" },
          "value": {
            "tensor": {
              "dtype": "DT_INT64",
              "tensorShape": { "dim": [{ "size": "4" }] }
            }
          }
        }
      },
      {
        "name": "PartitionedCall/model_27/tf.strided_slice_30/ones_like",
        "op": "Const",
        "attr": {
          "dtype": { "type": "DT_INT64" },
          "value": {
            "tensor": {
              "dtype": "DT_INT64",
              "tensorShape": { "dim": [{ "size": "4" }] }
            }
          }
        }
      },
      {
        "name": "PartitionedCall/model_27/tf.image.resize_3/resize/size",
        "op": "Const",
        "attr": {
          "value": {
            "tensor": {
              "dtype": "DT_INT32",
              "tensorShape": { "dim": [{ "size": "2" }] }
            }
          },
          "dtype": { "type": "DT_INT32" }
        }
      },
      {
        "name": "PartitionedCall/model_27/tf.concat_29/concat/axis",
        "op": "Const",
        "attr": {
          "dtype": { "type": "DT_INT32" },
          "value": { "tensor": { "dtype": "DT_INT32", "tensorShape": {} } }
        }
      },
      {
        "name": "27527",
        "op": "Const",
        "attr": {
          "value": {
            "tensor": {
              "dtype": "DT_FLOAT",
              "tensorShape": {
                "dim": [
                  { "size": "1" },
                  { "size": "1" },
                  { "size": "384" },
                  { "size": "128" }
                ]
              }
            }
          },
          "dtype": { "type": "DT_FLOAT" }
        }
      },
      {
        "name": "27529",
        "op": "Const",
        "attr": {
          "dtype": { "type": "DT_FLOAT" },
          "value": {
            "tensor": {
              "dtype": "DT_FLOAT",
              "tensorShape": { "dim": [{ "size": "128" }] }
            }
          }
        }
      },
      {
        "name": "27531",
        "op": "Const",
        "attr": {
          "dtype": { "type": "DT_INT64" },
          "value": {
            "tensor": {
              "dtype": "DT_INT64",
              "tensorShape": { "dim": [{ "size": "4" }] }
            }
          }
        }
      },
      {
        "name": "27533",
        "op": "Const",
        "attr": {
          "dtype": { "type": "DT_INT64" },
          "value": {
            "tensor": {
              "dtype": "DT_INT64",
              "tensorShape": { "dim": [{ "size": "4" }] }
            }
          }
        }
      },
      {
        "name": "PartitionedCall/model_27/tf.strided_slice_31/ones_like",
        "op": "Const",
        "attr": {
          "dtype": { "type": "DT_INT64" },
          "value": {
            "tensor": {
              "dtype": "DT_INT64",
              "tensorShape": { "dim": [{ "size": "4" }] }
            }
          }
        }
      },
      {
        "name": "27535",
        "op": "Const",
        "attr": {
          "value": {
            "tensor": {
              "dtype": "DT_FLOAT",
              "tensorShape": {
                "dim": [
                  { "size": "3" },
                  { "size": "3" },
                  { "size": "64" },
                  { "size": "64" }
                ]
              }
            }
          },
          "dtype": { "type": "DT_FLOAT" }
        }
      },
      {
        "name": "27537",
        "op": "Const",
        "attr": {
          "value": {
            "tensor": {
              "dtype": "DT_FLOAT",
              "tensorShape": { "dim": [{ "size": "64" }] }
            }
          },
          "dtype": { "type": "DT_FLOAT" }
        }
      },
      {
        "name": "27539",
        "op": "Const",
        "attr": {
          "dtype": { "type": "DT_FLOAT" },
          "value": {
            "tensor": {
              "dtype": "DT_FLOAT",
              "tensorShape": {
                "dim": [
                  { "size": "3" },
                  { "size": "3" },
                  { "size": "64" },
                  { "size": "64" }
                ]
              }
            }
          }
        }
      },
      {
        "name": "27541",
        "op": "Const",
        "attr": {
          "dtype": { "type": "DT_FLOAT" },
          "value": {
            "tensor": {
              "dtype": "DT_FLOAT",
              "tensorShape": { "dim": [{ "size": "64" }] }
            }
          }
        }
      },
      {
        "name": "PartitionedCall/model_27/tf.concat_30/concat/axis",
        "op": "Const",
        "attr": {
          "value": { "tensor": { "dtype": "DT_INT32", "tensorShape": {} } },
          "dtype": { "type": "DT_INT32" }
        }
      },
      {
        "name": "27547",
        "op": "Const",
        "attr": {
          "dtype": { "type": "DT_FLOAT" },
          "value": {
            "tensor": {
              "dtype": "DT_FLOAT",
              "tensorShape": {
                "dim": [
                  { "size": "1" },
                  { "size": "1" },
                  { "size": "192" },
                  { "size": "128" }
                ]
              }
            }
          }
        }
      },
      {
        "name": "27549",
        "op": "Const",
        "attr": {
          "value": {
            "tensor": {
              "dtype": "DT_FLOAT",
              "tensorShape": { "dim": [{ "size": "128" }] }
            }
          },
          "dtype": { "type": "DT_FLOAT" }
        }
      },
      {
        "name": "27551",
        "op": "Const",
        "attr": {
          "dtype": { "type": "DT_INT32" },
          "value": {
            "tensor": {
              "dtype": "DT_INT32",
              "tensorShape": { "dim": [{ "size": "4" }, { "size": "2" }] }
            }
          }
        }
      },
      {
        "name": "27553",
        "op": "Const",
        "attr": {
          "value": {
            "tensor": {
              "dtype": "DT_FLOAT",
              "tensorShape": {
                "dim": [
                  { "size": "3" },
                  { "size": "3" },
                  { "size": "128" },
                  { "size": "128" }
                ]
              }
            }
          },
          "dtype": { "type": "DT_FLOAT" }
        }
      },
      {
        "name": "27555",
        "op": "Const",
        "attr": {
          "value": {
            "tensor": {
              "dtype": "DT_FLOAT",
              "tensorShape": { "dim": [{ "size": "128" }] }
            }
          },
          "dtype": { "type": "DT_FLOAT" }
        }
      },
      {
        "name": "27519",
        "op": "Const",
        "attr": {
          "value": {
            "tensor": {
              "dtype": "DT_INT64",
              "tensorShape": { "dim": [{ "size": "4" }] }
            }
          },
          "dtype": { "type": "DT_INT64" }
        }
      },
      {
        "name": "27521",
        "op": "Const",
        "attr": {
          "dtype": { "type": "DT_INT64" },
          "value": {
            "tensor": {
              "dtype": "DT_INT64",
              "tensorShape": { "dim": [{ "size": "4" }] }
            }
          }
        }
      },
      {
        "name": "PartitionedCall/model_27/tf.strided_slice_28/ones_like",
        "op": "Const",
        "attr": {
          "dtype": { "type": "DT_INT64" },
          "value": {
            "tensor": {
              "dtype": "DT_INT64",
              "tensorShape": { "dim": [{ "size": "4" }] }
            }
          }
        }
      },
      {
        "name": "PartitionedCall/model_27/tf.image.resize_2/resize/size",
        "op": "Const",
        "attr": {
          "dtype": { "type": "DT_INT32" },
          "value": {
            "tensor": {
              "dtype": "DT_INT32",
              "tensorShape": { "dim": [{ "size": "2" }] }
            }
          }
        }
      },
      {
        "name": "PartitionedCall/model_27/tf.concat_27/concat/axis",
        "op": "Const",
        "attr": {
          "dtype": { "type": "DT_INT32" },
          "value": { "tensor": { "dtype": "DT_INT32", "tensorShape": {} } }
        }
      },
      {
        "name": "27503",
        "op": "Const",
        "attr": {
          "dtype": { "type": "DT_FLOAT" },
          "value": {
            "tensor": {
              "dtype": "DT_FLOAT",
              "tensorShape": {
                "dim": [
                  { "size": "1" },
                  { "size": "1" },
                  { "size": "768" },
                  { "size": "256" }
                ]
              }
            }
          }
        }
      },
      {
        "name": "27505",
        "op": "Const",
        "attr": {
          "value": {
            "tensor": {
              "dtype": "DT_FLOAT",
              "tensorShape": { "dim": [{ "size": "256" }] }
            }
          },
          "dtype": { "type": "DT_FLOAT" }
        }
      },
      {
        "name": "27507",
        "op": "Const",
        "attr": {
          "dtype": { "type": "DT_INT64" },
          "value": {
            "tensor": {
              "dtype": "DT_INT64",
              "tensorShape": { "dim": [{ "size": "4" }] }
            }
          }
        }
      },
      {
        "name": "27509",
        "op": "Const",
        "attr": {
          "value": {
            "tensor": {
              "dtype": "DT_INT64",
              "tensorShape": { "dim": [{ "size": "4" }] }
            }
          },
          "dtype": { "type": "DT_INT64" }
        }
      },
      {
        "name": "PartitionedCall/model_27/tf.strided_slice_29/ones_like",
        "op": "Const",
        "attr": {
          "dtype": { "type": "DT_INT64" },
          "value": {
            "tensor": {
              "dtype": "DT_INT64",
              "tensorShape": { "dim": [{ "size": "4" }] }
            }
          }
        }
      },
      {
        "name": "27511",
        "op": "Const",
        "attr": {
          "dtype": { "type": "DT_FLOAT" },
          "value": {
            "tensor": {
              "dtype": "DT_FLOAT",
              "tensorShape": {
                "dim": [
                  { "size": "3" },
                  { "size": "3" },
                  { "size": "128" },
                  { "size": "128" }
                ]
              }
            }
          }
        }
      },
      {
        "name": "27513",
        "op": "Const",
        "attr": {
          "value": {
            "tensor": {
              "dtype": "DT_FLOAT",
              "tensorShape": { "dim": [{ "size": "128" }] }
            }
          },
          "dtype": { "type": "DT_FLOAT" }
        }
      },
      {
        "name": "27515",
        "op": "Const",
        "attr": {
          "dtype": { "type": "DT_FLOAT" },
          "value": {
            "tensor": {
              "dtype": "DT_FLOAT",
              "tensorShape": {
                "dim": [
                  { "size": "3" },
                  { "size": "3" },
                  { "size": "128" },
                  { "size": "128" }
                ]
              }
            }
          }
        }
      },
      {
        "name": "27517",
        "op": "Const",
        "attr": {
          "value": {
            "tensor": {
              "dtype": "DT_FLOAT",
              "tensorShape": { "dim": [{ "size": "128" }] }
            }
          },
          "dtype": { "type": "DT_FLOAT" }
        }
      },
      {
        "name": "PartitionedCall/model_27/tf.concat_28/concat/axis",
        "op": "Const",
        "attr": {
          "value": { "tensor": { "dtype": "DT_INT32", "tensorShape": {} } },
          "dtype": { "type": "DT_INT32" }
        }
      },
      {
        "name": "27523",
        "op": "Const",
        "attr": {
          "value": {
            "tensor": {
              "dtype": "DT_FLOAT",
              "tensorShape": {
                "dim": [
                  { "size": "1" },
                  { "size": "1" },
                  { "size": "384" },
                  { "size": "256" }
                ]
              }
            }
          },
          "dtype": { "type": "DT_FLOAT" }
        }
      },
      {
        "name": "27525",
        "op": "Const",
        "attr": {
          "dtype": { "type": "DT_FLOAT" },
          "value": {
            "tensor": {
              "dtype": "DT_FLOAT",
              "tensorShape": { "dim": [{ "size": "256" }] }
            }
          }
        }
      },
      {
        "name": "PartitionedCall/model_27/tf.concat_31/concat/axis",
        "op": "Const",
        "attr": {
          "dtype": { "type": "DT_INT32" },
          "value": { "tensor": { "dtype": "DT_INT32", "tensorShape": {} } }
        }
      },
      {
        "name": "27557",
        "op": "Const",
        "attr": {
          "dtype": { "type": "DT_FLOAT" },
          "value": {
            "tensor": {
              "dtype": "DT_FLOAT",
              "tensorShape": {
                "dim": [
                  { "size": "1" },
                  { "size": "1" },
                  { "size": "384" },
                  { "size": "256" }
                ]
              }
            }
          }
        }
      },
      {
        "name": "27559",
        "op": "Const",
        "attr": {
          "value": {
            "tensor": {
              "dtype": "DT_FLOAT",
              "tensorShape": { "dim": [{ "size": "256" }] }
            }
          },
          "dtype": { "type": "DT_FLOAT" }
        }
      },
      {
        "name": "27561",
        "op": "Const",
        "attr": {
          "dtype": { "type": "DT_INT64" },
          "value": {
            "tensor": {
              "dtype": "DT_INT64",
              "tensorShape": { "dim": [{ "size": "4" }] }
            }
          }
        }
      },
      {
        "name": "27563",
        "op": "Const",
        "attr": {
          "value": {
            "tensor": {
              "dtype": "DT_INT64",
              "tensorShape": { "dim": [{ "size": "4" }] }
            }
          },
          "dtype": { "type": "DT_INT64" }
        }
      },
      {
        "name": "PartitionedCall/model_27/tf.strided_slice_33/ones_like",
        "op": "Const",
        "attr": {
          "dtype": { "type": "DT_INT64" },
          "value": {
            "tensor": {
              "dtype": "DT_INT64",
              "tensorShape": { "dim": [{ "size": "4" }] }
            }
          }
        }
      },
      {
        "name": "27565",
        "op": "Const",
        "attr": {
          "value": {
            "tensor": {
              "dtype": "DT_FLOAT",
              "tensorShape": {
                "dim": [
                  { "size": "3" },
                  { "size": "3" },
                  { "size": "128" },
                  { "size": "128" }
                ]
              }
            }
          },
          "dtype": { "type": "DT_FLOAT" }
        }
      },
      {
        "name": "27567",
        "op": "Const",
        "attr": {
          "dtype": { "type": "DT_FLOAT" },
          "value": {
            "tensor": {
              "dtype": "DT_FLOAT",
              "tensorShape": { "dim": [{ "size": "128" }] }
            }
          }
        }
      },
      {
        "name": "27569",
        "op": "Const",
        "attr": {
          "dtype": { "type": "DT_FLOAT" },
          "value": {
            "tensor": {
              "dtype": "DT_FLOAT",
              "tensorShape": {
                "dim": [
                  { "size": "3" },
                  { "size": "3" },
                  { "size": "128" },
                  { "size": "128" }
                ]
              }
            }
          }
        }
      },
      {
        "name": "27571",
        "op": "Const",
        "attr": {
          "dtype": { "type": "DT_FLOAT" },
          "value": {
            "tensor": {
              "dtype": "DT_FLOAT",
              "tensorShape": { "dim": [{ "size": "128" }] }
            }
          }
        }
      },
      {
        "name": "PartitionedCall/model_27/tf.concat_33/concat/axis",
        "op": "Const",
        "attr": {
          "value": { "tensor": { "dtype": "DT_INT32", "tensorShape": {} } },
          "dtype": { "type": "DT_INT32" }
        }
      },
      {
        "name": "27577",
        "op": "Const",
        "attr": {
          "value": {
            "tensor": {
              "dtype": "DT_FLOAT",
              "tensorShape": {
                "dim": [
                  { "size": "1" },
                  { "size": "1" },
                  { "size": "384" },
                  { "size": "256" }
                ]
              }
            }
          },
          "dtype": { "type": "DT_FLOAT" }
        }
      },
      {
        "name": "27579",
        "op": "Const",
        "attr": {
          "value": {
            "tensor": {
              "dtype": "DT_FLOAT",
              "tensorShape": { "dim": [{ "size": "256" }] }
            }
          },
          "dtype": { "type": "DT_FLOAT" }
        }
      },
      {
        "name": "27581",
        "op": "Const",
        "attr": {
          "dtype": { "type": "DT_INT32" },
          "value": {
            "tensor": {
              "dtype": "DT_INT32",
              "tensorShape": { "dim": [{ "size": "4" }, { "size": "2" }] }
            }
          }
        }
      },
      {
        "name": "27583",
        "op": "Const",
        "attr": {
          "dtype": { "type": "DT_FLOAT" },
          "value": {
            "tensor": {
              "dtype": "DT_FLOAT",
              "tensorShape": {
                "dim": [
                  { "size": "3" },
                  { "size": "3" },
                  { "size": "256" },
                  { "size": "256" }
                ]
              }
            }
          }
        }
      },
      {
        "name": "27585",
        "op": "Const",
        "attr": {
          "dtype": { "type": "DT_FLOAT" },
          "value": {
            "tensor": {
              "dtype": "DT_FLOAT",
              "tensorShape": { "dim": [{ "size": "256" }] }
            }
          }
        }
      },
      {
        "name": "27487",
        "op": "Const",
        "attr": {
          "dtype": { "type": "DT_INT64" },
          "value": {
            "tensor": {
              "dtype": "DT_INT64",
              "tensorShape": { "dim": [{ "size": "4" }] }
            }
          }
        }
      },
      {
        "name": "27489",
        "op": "Const",
        "attr": {
          "dtype": { "type": "DT_INT64" },
          "value": {
            "tensor": {
              "dtype": "DT_INT64",
              "tensorShape": { "dim": [{ "size": "4" }] }
            }
          }
        }
      },
      {
        "name": "PartitionedCall/model_27/tf.strided_slice_26/ones_like",
        "op": "Const",
        "attr": {
          "dtype": { "type": "DT_INT64" },
          "value": {
            "tensor": {
              "dtype": "DT_INT64",
              "tensorShape": { "dim": [{ "size": "4" }] }
            }
          }
        }
      },
      {
        "name": "27457",
        "op": "Const",
        "attr": {
          "dtype": { "type": "DT_INT64" },
          "value": {
            "tensor": {
              "dtype": "DT_INT64",
              "tensorShape": { "dim": [{ "size": "4" }] }
            }
          }
        }
      },
      {
        "name": "27459",
        "op": "Const",
        "attr": {
          "value": {
            "tensor": {
              "dtype": "DT_INT64",
              "tensorShape": { "dim": [{ "size": "4" }] }
            }
          },
          "dtype": { "type": "DT_INT64" }
        }
      },
      {
        "name": "PartitionedCall/model_27/tf.strided_slice_24/ones_like",
        "op": "Const",
        "attr": {
          "value": {
            "tensor": {
              "dtype": "DT_INT64",
              "tensorShape": { "dim": [{ "size": "4" }] }
            }
          },
          "dtype": { "type": "DT_INT64" }
        }
      },
      {
        "name": "27419",
        "op": "Const",
        "attr": {
          "value": {
            "tensor": {
              "dtype": "DT_INT64",
              "tensorShape": { "dim": [{ "size": "4" }] }
            }
          },
          "dtype": { "type": "DT_INT64" }
        }
      },
      {
        "name": "27421",
        "op": "Const",
        "attr": {
          "dtype": { "type": "DT_INT64" },
          "value": {
            "tensor": {
              "dtype": "DT_INT64",
              "tensorShape": { "dim": [{ "size": "4" }] }
            }
          }
        }
      },
      {
        "name": "PartitionedCall/model_27/tf.strided_slice_22/ones_like",
        "op": "Const",
        "attr": {
          "value": {
            "tensor": {
              "dtype": "DT_INT64",
              "tensorShape": { "dim": [{ "size": "4" }] }
            }
          },
          "dtype": { "type": "DT_INT64" }
        }
      },
      {
        "name": "27381",
        "op": "Const",
        "attr": {
          "value": {
            "tensor": {
              "dtype": "DT_INT64",
              "tensorShape": { "dim": [{ "size": "4" }] }
            }
          },
          "dtype": { "type": "DT_INT64" }
        }
      },
      {
        "name": "27383",
        "op": "Const",
        "attr": {
          "value": {
            "tensor": {
              "dtype": "DT_INT64",
              "tensorShape": { "dim": [{ "size": "4" }] }
            }
          },
          "dtype": { "type": "DT_INT64" }
        }
      },
      {
        "name": "PartitionedCall/model_27/tf.strided_slice_20/ones_like",
        "op": "Const",
        "attr": {
          "dtype": { "type": "DT_INT64" },
          "value": {
            "tensor": {
              "dtype": "DT_INT64",
              "tensorShape": { "dim": [{ "size": "4" }] }
            }
          }
        }
      },
      {
        "name": "27353",
        "op": "Const",
        "attr": {
          "value": {
            "tensor": {
              "dtype": "DT_INT32",
              "tensorShape": { "dim": [{ "size": "4" }, { "size": "2" }] }
            }
          },
          "dtype": { "type": "DT_INT32" }
        }
      },
      {
        "name": "27355",
        "op": "Const",
        "attr": {
          "value": {
            "tensor": {
              "dtype": "DT_FLOAT",
              "tensorShape": {
                "dim": [
                  { "size": "3" },
                  { "size": "3" },
                  { "size": "3" },
                  { "size": "32" }
                ]
              }
            }
          },
          "dtype": { "type": "DT_FLOAT" }
        }
      },
      {
        "name": "27357",
        "op": "Const",
        "attr": {
          "dtype": { "type": "DT_FLOAT" },
          "value": {
            "tensor": {
              "dtype": "DT_FLOAT",
              "tensorShape": { "dim": [{ "size": "32" }] }
            }
          }
        }
      },
      {
        "name": "27359",
        "op": "Const",
        "attr": {
          "value": {
            "tensor": {
              "dtype": "DT_INT32",
              "tensorShape": { "dim": [{ "size": "4" }, { "size": "2" }] }
            }
          },
          "dtype": { "type": "DT_INT32" }
        }
      },
      {
        "name": "27361",
        "op": "Const",
        "attr": {
          "dtype": { "type": "DT_FLOAT" },
          "value": {
            "tensor": {
              "dtype": "DT_FLOAT",
              "tensorShape": {
                "dim": [
                  { "size": "3" },
                  { "size": "3" },
                  { "size": "32" },
                  { "size": "64" }
                ]
              }
            }
          }
        }
      },
      {
        "name": "27363",
        "op": "Const",
        "attr": {
          "dtype": { "type": "DT_FLOAT" },
          "value": {
            "tensor": {
              "dtype": "DT_FLOAT",
              "tensorShape": { "dim": [{ "size": "64" }] }
            }
          }
        }
      },
      {
        "name": "27365",
        "op": "Const",
        "attr": {
          "value": {
            "tensor": {
              "dtype": "DT_FLOAT",
              "tensorShape": {
                "dim": [
                  { "size": "1" },
                  { "size": "1" },
                  { "size": "64" },
                  { "size": "64" }
                ]
              }
            }
          },
          "dtype": { "type": "DT_FLOAT" }
        }
      },
      {
        "name": "27367",
        "op": "Const",
        "attr": {
          "value": {
            "tensor": {
              "dtype": "DT_FLOAT",
              "tensorShape": { "dim": [{ "size": "64" }] }
            }
          },
          "dtype": { "type": "DT_FLOAT" }
        }
      },
      {
        "name": "27369",
        "op": "Const",
        "attr": {
          "dtype": { "type": "DT_INT64" },
          "value": {
            "tensor": {
              "dtype": "DT_INT64",
              "tensorShape": { "dim": [{ "size": "4" }] }
            }
          }
        }
      },
      {
        "name": "27371",
        "op": "Const",
        "attr": {
          "value": {
            "tensor": {
              "dtype": "DT_INT64",
              "tensorShape": { "dim": [{ "size": "4" }] }
            }
          },
          "dtype": { "type": "DT_INT64" }
        }
      },
      {
        "name": "PartitionedCall/model_27/tf.strided_slice_21/ones_like",
        "op": "Const",
        "attr": {
          "dtype": { "type": "DT_INT64" },
          "value": {
            "tensor": {
              "dtype": "DT_INT64",
              "tensorShape": { "dim": [{ "size": "4" }] }
            }
          }
        }
      },
      {
        "name": "27373",
        "op": "Const",
        "attr": {
          "dtype": { "type": "DT_FLOAT" },
          "value": {
            "tensor": {
              "dtype": "DT_FLOAT",
              "tensorShape": {
                "dim": [
                  { "size": "3" },
                  { "size": "3" },
                  { "size": "32" },
                  { "size": "32" }
                ]
              }
            }
          }
        }
      },
      {
        "name": "27375",
        "op": "Const",
        "attr": {
          "value": {
            "tensor": {
              "dtype": "DT_FLOAT",
              "tensorShape": { "dim": [{ "size": "32" }] }
            }
          },
          "dtype": { "type": "DT_FLOAT" }
        }
      },
      {
        "name": "27377",
        "op": "Const",
        "attr": {
          "dtype": { "type": "DT_FLOAT" },
          "value": {
            "tensor": {
              "dtype": "DT_FLOAT",
              "tensorShape": {
                "dim": [
                  { "size": "3" },
                  { "size": "3" },
                  { "size": "32" },
                  { "size": "32" }
                ]
              }
            }
          }
        }
      },
      {
        "name": "27379",
        "op": "Const",
        "attr": {
          "dtype": { "type": "DT_FLOAT" },
          "value": {
            "tensor": {
              "dtype": "DT_FLOAT",
              "tensorShape": { "dim": [{ "size": "32" }] }
            }
          }
        }
      },
      {
        "name": "PartitionedCall/model_27/tf.concat_22/concat/axis",
        "op": "Const",
        "attr": {
          "dtype": { "type": "DT_INT32" },
          "value": { "tensor": { "dtype": "DT_INT32", "tensorShape": {} } }
        }
      },
      {
        "name": "27385",
        "op": "Const",
        "attr": {
          "dtype": { "type": "DT_FLOAT" },
          "value": {
            "tensor": {
              "dtype": "DT_FLOAT",
              "tensorShape": {
                "dim": [
                  { "size": "1" },
                  { "size": "1" },
                  { "size": "96" },
                  { "size": "64" }
                ]
              }
            }
          }
        }
      },
      {
        "name": "27387",
        "op": "Const",
        "attr": {
          "value": {
            "tensor": {
              "dtype": "DT_FLOAT",
              "tensorShape": { "dim": [{ "size": "64" }] }
            }
          },
          "dtype": { "type": "DT_FLOAT" }
        }
      },
      {
        "name": "27389",
        "op": "Const",
        "attr": {
          "value": {
            "tensor": {
              "dtype": "DT_INT32",
              "tensorShape": { "dim": [{ "size": "4" }, { "size": "2" }] }
            }
          },
          "dtype": { "type": "DT_INT32" }
        }
      },
      {
        "name": "27391",
        "op": "Const",
        "attr": {
          "dtype": { "type": "DT_FLOAT" },
          "value": {
            "tensor": {
              "dtype": "DT_FLOAT",
              "tensorShape": {
                "dim": [
                  { "size": "3" },
                  { "size": "3" },
                  { "size": "64" },
                  { "size": "128" }
                ]
              }
            }
          }
        }
      },
      {
        "name": "27393",
        "op": "Const",
        "attr": {
          "dtype": { "type": "DT_FLOAT" },
          "value": {
            "tensor": {
              "dtype": "DT_FLOAT",
              "tensorShape": { "dim": [{ "size": "128" }] }
            }
          }
        }
      },
      {
        "name": "27395",
        "op": "Const",
        "attr": {
          "dtype": { "type": "DT_FLOAT" },
          "value": {
            "tensor": {
              "dtype": "DT_FLOAT",
              "tensorShape": {
                "dim": [
                  { "size": "1" },
                  { "size": "1" },
                  { "size": "128" },
                  { "size": "128" }
                ]
              }
            }
          }
        }
      },
      {
        "name": "27397",
        "op": "Const",
        "attr": {
          "value": {
            "tensor": {
              "dtype": "DT_FLOAT",
              "tensorShape": { "dim": [{ "size": "128" }] }
            }
          },
          "dtype": { "type": "DT_FLOAT" }
        }
      },
      {
        "name": "27399",
        "op": "Const",
        "attr": {
          "value": {
            "tensor": {
              "dtype": "DT_INT64",
              "tensorShape": { "dim": [{ "size": "4" }] }
            }
          },
          "dtype": { "type": "DT_INT64" }
        }
      },
      {
        "name": "27401",
        "op": "Const",
        "attr": {
          "value": {
            "tensor": {
              "dtype": "DT_INT64",
              "tensorShape": { "dim": [{ "size": "4" }] }
            }
          },
          "dtype": { "type": "DT_INT64" }
        }
      },
      {
        "name": "PartitionedCall/model_27/tf.strided_slice_23/ones_like",
        "op": "Const",
        "attr": {
          "dtype": { "type": "DT_INT64" },
          "value": {
            "tensor": {
              "dtype": "DT_INT64",
              "tensorShape": { "dim": [{ "size": "4" }] }
            }
          }
        }
      },
      {
        "name": "27403",
        "op": "Const",
        "attr": {
          "value": {
            "tensor": {
              "dtype": "DT_FLOAT",
              "tensorShape": {
                "dim": [
                  { "size": "3" },
                  { "size": "3" },
                  { "size": "64" },
                  { "size": "64" }
                ]
              }
            }
          },
          "dtype": { "type": "DT_FLOAT" }
        }
      },
      {
        "name": "27405",
        "op": "Const",
        "attr": {
          "dtype": { "type": "DT_FLOAT" },
          "value": {
            "tensor": {
              "dtype": "DT_FLOAT",
              "tensorShape": { "dim": [{ "size": "64" }] }
            }
          }
        }
      },
      {
        "name": "27407",
        "op": "Const",
        "attr": {
          "value": {
            "tensor": {
              "dtype": "DT_FLOAT",
              "tensorShape": {
                "dim": [
                  { "size": "3" },
                  { "size": "3" },
                  { "size": "64" },
                  { "size": "64" }
                ]
              }
            }
          },
          "dtype": { "type": "DT_FLOAT" }
        }
      },
      {
        "name": "27409",
        "op": "Const",
        "attr": {
          "dtype": { "type": "DT_FLOAT" },
          "value": {
            "tensor": {
              "dtype": "DT_FLOAT",
              "tensorShape": { "dim": [{ "size": "64" }] }
            }
          }
        }
      },
      {
        "name": "27411",
        "op": "Const",
        "attr": {
          "dtype": { "type": "DT_FLOAT" },
          "value": {
            "tensor": {
              "dtype": "DT_FLOAT",
              "tensorShape": {
                "dim": [
                  { "size": "3" },
                  { "size": "3" },
                  { "size": "64" },
                  { "size": "64" }
                ]
              }
            }
          }
        }
      },
      {
        "name": "27413",
        "op": "Const",
        "attr": {
          "dtype": { "type": "DT_FLOAT" },
          "value": {
            "tensor": {
              "dtype": "DT_FLOAT",
              "tensorShape": { "dim": [{ "size": "64" }] }
            }
          }
        }
      },
      {
        "name": "27415",
        "op": "Const",
        "attr": {
          "dtype": { "type": "DT_FLOAT" },
          "value": {
            "tensor": {
              "dtype": "DT_FLOAT",
              "tensorShape": {
                "dim": [
                  { "size": "3" },
                  { "size": "3" },
                  { "size": "64" },
                  { "size": "64" }
                ]
              }
            }
          }
        }
      },
      {
        "name": "27417",
        "op": "Const",
        "attr": {
          "dtype": { "type": "DT_FLOAT" },
          "value": {
            "tensor": {
              "dtype": "DT_FLOAT",
              "tensorShape": { "dim": [{ "size": "64" }] }
            }
          }
        }
      },
      {
        "name": "PartitionedCall/model_27/tf.concat_23/concat/axis",
        "op": "Const",
        "attr": {
          "value": { "tensor": { "dtype": "DT_INT32", "tensorShape": {} } },
          "dtype": { "type": "DT_INT32" }
        }
      },
      {
        "name": "27423",
        "op": "Const",
        "attr": {
          "value": {
            "tensor": {
              "dtype": "DT_FLOAT",
              "tensorShape": {
                "dim": [
                  { "size": "1" },
                  { "size": "1" },
                  { "size": "256" },
                  { "size": "128" }
                ]
              }
            }
          },
          "dtype": { "type": "DT_FLOAT" }
        }
      },
      {
        "name": "27425",
        "op": "Const",
        "attr": {
          "value": {
            "tensor": {
              "dtype": "DT_FLOAT",
              "tensorShape": { "dim": [{ "size": "128" }] }
            }
          },
          "dtype": { "type": "DT_FLOAT" }
        }
      },
      {
        "name": "27427",
        "op": "Const",
        "attr": {
          "value": {
            "tensor": {
              "dtype": "DT_INT32",
              "tensorShape": { "dim": [{ "size": "4" }, { "size": "2" }] }
            }
          },
          "dtype": { "type": "DT_INT32" }
        }
      },
      {
        "name": "27429",
        "op": "Const",
        "attr": {
          "dtype": { "type": "DT_FLOAT" },
          "value": {
            "tensor": {
              "dtype": "DT_FLOAT",
              "tensorShape": {
                "dim": [
                  { "size": "3" },
                  { "size": "3" },
                  { "size": "128" },
                  { "size": "256" }
                ]
              }
            }
          }
        }
      },
      {
        "name": "27431",
        "op": "Const",
        "attr": {
          "dtype": { "type": "DT_FLOAT" },
          "value": {
            "tensor": {
              "dtype": "DT_FLOAT",
              "tensorShape": { "dim": [{ "size": "256" }] }
            }
          }
        }
      },
      {
        "name": "27433",
        "op": "Const",
        "attr": {
          "dtype": { "type": "DT_FLOAT" },
          "value": {
            "tensor": {
              "dtype": "DT_FLOAT",
              "tensorShape": {
                "dim": [
                  { "size": "1" },
                  { "size": "1" },
                  { "size": "256" },
                  { "size": "256" }
                ]
              }
            }
          }
        }
      },
      {
        "name": "27435",
        "op": "Const",
        "attr": {
          "value": {
            "tensor": {
              "dtype": "DT_FLOAT",
              "tensorShape": { "dim": [{ "size": "256" }] }
            }
          },
          "dtype": { "type": "DT_FLOAT" }
        }
      },
      {
        "name": "27437",
        "op": "Const",
        "attr": {
          "dtype": { "type": "DT_INT64" },
          "value": {
            "tensor": {
              "dtype": "DT_INT64",
              "tensorShape": { "dim": [{ "size": "4" }] }
            }
          }
        }
      },
      {
        "name": "27439",
        "op": "Const",
        "attr": {
          "dtype": { "type": "DT_INT64" },
          "value": {
            "tensor": {
              "dtype": "DT_INT64",
              "tensorShape": { "dim": [{ "size": "4" }] }
            }
          }
        }
      },
      {
        "name": "PartitionedCall/model_27/tf.strided_slice_25/ones_like",
        "op": "Const",
        "attr": {
          "value": {
            "tensor": {
              "dtype": "DT_INT64",
              "tensorShape": { "dim": [{ "size": "4" }] }
            }
          },
          "dtype": { "type": "DT_INT64" }
        }
      },
      {
        "name": "27441",
        "op": "Const",
        "attr": {
          "dtype": { "type": "DT_FLOAT" },
          "value": {
            "tensor": {
              "dtype": "DT_FLOAT",
              "tensorShape": {
                "dim": [
                  { "size": "3" },
                  { "size": "3" },
                  { "size": "128" },
                  { "size": "128" }
                ]
              }
            }
          }
        }
      },
      {
        "name": "27443",
        "op": "Const",
        "attr": {
          "dtype": { "type": "DT_FLOAT" },
          "value": {
            "tensor": {
              "dtype": "DT_FLOAT",
              "tensorShape": { "dim": [{ "size": "128" }] }
            }
          }
        }
      },
      {
        "name": "27445",
        "op": "Const",
        "attr": {
          "dtype": { "type": "DT_FLOAT" },
          "value": {
            "tensor": {
              "dtype": "DT_FLOAT",
              "tensorShape": {
                "dim": [
                  { "size": "3" },
                  { "size": "3" },
                  { "size": "128" },
                  { "size": "128" }
                ]
              }
            }
          }
        }
      },
      {
        "name": "27447",
        "op": "Const",
        "attr": {
          "dtype": { "type": "DT_FLOAT" },
          "value": {
            "tensor": {
              "dtype": "DT_FLOAT",
              "tensorShape": { "dim": [{ "size": "128" }] }
            }
          }
        }
      },
      {
        "name": "27449",
        "op": "Const",
        "attr": {
          "dtype": { "type": "DT_FLOAT" },
          "value": {
            "tensor": {
              "dtype": "DT_FLOAT",
              "tensorShape": {
                "dim": [
                  { "size": "3" },
                  { "size": "3" },
                  { "size": "128" },
                  { "size": "128" }
                ]
              }
            }
          }
        }
      },
      {
        "name": "27451",
        "op": "Const",
        "attr": {
          "dtype": { "type": "DT_FLOAT" },
          "value": {
            "tensor": {
              "dtype": "DT_FLOAT",
              "tensorShape": { "dim": [{ "size": "128" }] }
            }
          }
        }
      },
      {
        "name": "27453",
        "op": "Const",
        "attr": {
          "value": {
            "tensor": {
              "dtype": "DT_FLOAT",
              "tensorShape": {
                "dim": [
                  { "size": "3" },
                  { "size": "3" },
                  { "size": "128" },
                  { "size": "128" }
                ]
              }
            }
          },
          "dtype": { "type": "DT_FLOAT" }
        }
      },
      {
        "name": "27455",
        "op": "Const",
        "attr": {
          "value": {
            "tensor": {
              "dtype": "DT_FLOAT",
              "tensorShape": { "dim": [{ "size": "128" }] }
            }
          },
          "dtype": { "type": "DT_FLOAT" }
        }
      },
      {
        "name": "PartitionedCall/model_27/tf.concat_24/concat/axis",
        "op": "Const",
        "attr": {
          "dtype": { "type": "DT_INT32" },
          "value": { "tensor": { "dtype": "DT_INT32", "tensorShape": {} } }
        }
      },
      {
        "name": "27461",
        "op": "Const",
        "attr": {
          "value": {
            "tensor": {
              "dtype": "DT_FLOAT",
              "tensorShape": {
                "dim": [
                  { "size": "1" },
                  { "size": "1" },
                  { "size": "512" },
                  { "size": "256" }
                ]
              }
            }
          },
          "dtype": { "type": "DT_FLOAT" }
        }
      },
      {
        "name": "27463",
        "op": "Const",
        "attr": {
          "value": {
            "tensor": {
              "dtype": "DT_FLOAT",
              "tensorShape": { "dim": [{ "size": "256" }] }
            }
          },
          "dtype": { "type": "DT_FLOAT" }
        }
      },
      {
        "name": "27465",
        "op": "Const",
        "attr": {
          "value": {
            "tensor": {
              "dtype": "DT_INT32",
              "tensorShape": { "dim": [{ "size": "4" }, { "size": "2" }] }
            }
          },
          "dtype": { "type": "DT_INT32" }
        }
      },
      {
        "name": "27467",
        "op": "Const",
        "attr": {
          "value": {
            "tensor": {
              "dtype": "DT_FLOAT",
              "tensorShape": {
                "dim": [
                  { "size": "3" },
                  { "size": "3" },
                  { "size": "256" },
                  { "size": "512" }
                ]
              }
            }
          },
          "dtype": { "type": "DT_FLOAT" }
        }
      },
      {
        "name": "27469",
        "op": "Const",
        "attr": {
          "dtype": { "type": "DT_FLOAT" },
          "value": {
            "tensor": {
              "dtype": "DT_FLOAT",
              "tensorShape": { "dim": [{ "size": "512" }] }
            }
          }
        }
      },
      {
        "name": "27471",
        "op": "Const",
        "attr": {
          "dtype": { "type": "DT_FLOAT" },
          "value": {
            "tensor": {
              "dtype": "DT_FLOAT",
              "tensorShape": {
                "dim": [
                  { "size": "1" },
                  { "size": "1" },
                  { "size": "512" },
                  { "size": "512" }
                ]
              }
            }
          }
        }
      },
      {
        "name": "27473",
        "op": "Const",
        "attr": {
          "dtype": { "type": "DT_FLOAT" },
          "value": {
            "tensor": {
              "dtype": "DT_FLOAT",
              "tensorShape": { "dim": [{ "size": "512" }] }
            }
          }
        }
      },
      {
        "name": "27475",
        "op": "Const",
        "attr": {
          "dtype": { "type": "DT_INT64" },
          "value": {
            "tensor": {
              "dtype": "DT_INT64",
              "tensorShape": { "dim": [{ "size": "4" }] }
            }
          }
        }
      },
      {
        "name": "27477",
        "op": "Const",
        "attr": {
          "value": {
            "tensor": {
              "dtype": "DT_INT64",
              "tensorShape": { "dim": [{ "size": "4" }] }
            }
          },
          "dtype": { "type": "DT_INT64" }
        }
      },
      {
        "name": "PartitionedCall/model_27/tf.strided_slice_27/ones_like",
        "op": "Const",
        "attr": {
          "value": {
            "tensor": {
              "dtype": "DT_INT64",
              "tensorShape": { "dim": [{ "size": "4" }] }
            }
          },
          "dtype": { "type": "DT_INT64" }
        }
      },
      {
        "name": "27479",
        "op": "Const",
        "attr": {
          "dtype": { "type": "DT_FLOAT" },
          "value": {
            "tensor": {
              "dtype": "DT_FLOAT",
              "tensorShape": {
                "dim": [
                  { "size": "3" },
                  { "size": "3" },
                  { "size": "256" },
                  { "size": "256" }
                ]
              }
            }
          }
        }
      },
      {
        "name": "27481",
        "op": "Const",
        "attr": {
          "value": {
            "tensor": {
              "dtype": "DT_FLOAT",
              "tensorShape": { "dim": [{ "size": "256" }] }
            }
          },
          "dtype": { "type": "DT_FLOAT" }
        }
      },
      {
        "name": "27483",
        "op": "Const",
        "attr": {
          "dtype": { "type": "DT_FLOAT" },
          "value": {
            "tensor": {
              "dtype": "DT_FLOAT",
              "tensorShape": {
                "dim": [
                  { "size": "3" },
                  { "size": "3" },
                  { "size": "256" },
                  { "size": "256" }
                ]
              }
            }
          }
        }
      },
      {
        "name": "27485",
        "op": "Const",
        "attr": {
          "value": {
            "tensor": {
              "dtype": "DT_FLOAT",
              "tensorShape": { "dim": [{ "size": "256" }] }
            }
          },
          "dtype": { "type": "DT_FLOAT" }
        }
      },
      {
        "name": "PartitionedCall/model_27/tf.concat_25/concat/axis",
        "op": "Const",
        "attr": {
          "dtype": { "type": "DT_INT32" },
          "value": { "tensor": { "dtype": "DT_INT32", "tensorShape": {} } }
        }
      },
      {
        "name": "27491",
        "op": "Const",
        "attr": {
          "value": {
            "tensor": {
              "dtype": "DT_FLOAT",
              "tensorShape": {
                "dim": [
                  { "size": "1" },
                  { "size": "1" },
                  { "size": "768" },
                  { "size": "512" }
                ]
              }
            }
          },
          "dtype": { "type": "DT_FLOAT" }
        }
      },
      {
        "name": "27493",
        "op": "Const",
        "attr": {
          "value": {
            "tensor": {
              "dtype": "DT_FLOAT",
              "tensorShape": { "dim": [{ "size": "512" }] }
            }
          },
          "dtype": { "type": "DT_FLOAT" }
        }
      },
      {
        "name": "27495",
        "op": "Const",
        "attr": {
          "dtype": { "type": "DT_FLOAT" },
          "value": {
            "tensor": {
              "dtype": "DT_FLOAT",
              "tensorShape": {
                "dim": [
                  { "size": "1" },
                  { "size": "1" },
                  { "size": "512" },
                  { "size": "256" }
                ]
              }
            }
          }
        }
      },
      {
        "name": "27497",
        "op": "Const",
        "attr": {
          "value": {
            "tensor": {
              "dtype": "DT_FLOAT",
              "tensorShape": { "dim": [{ "size": "256" }] }
            }
          },
          "dtype": { "type": "DT_FLOAT" }
        }
      },
      {
        "name": "PartitionedCall/model_27/tf.concat_26/concat/axis",
        "op": "Const",
        "attr": {
          "dtype": { "type": "DT_INT32" },
          "value": { "tensor": { "dtype": "DT_INT32", "tensorShape": {} } }
        }
      },
      {
        "name": "27499",
        "op": "Const",
        "attr": {
          "value": {
            "tensor": {
              "dtype": "DT_FLOAT",
              "tensorShape": {
                "dim": [
                  { "size": "1" },
                  { "size": "1" },
                  { "size": "1024" },
                  { "size": "512" }
                ]
              }
            }
          },
          "dtype": { "type": "DT_FLOAT" }
        }
      },
      {
        "name": "27501",
        "op": "Const",
        "attr": {
          "dtype": { "type": "DT_FLOAT" },
          "value": {
            "tensor": {
              "dtype": "DT_FLOAT",
              "tensorShape": { "dim": [{ "size": "512" }] }
            }
          }
        }
      },
      {
        "name": "PartitionedCall/model_27/tf.concat_34/concat/axis",
        "op": "Const",
        "attr": {
          "value": { "tensor": { "dtype": "DT_INT32", "tensorShape": {} } },
          "dtype": { "type": "DT_INT32" }
        }
      },
      {
        "name": "27587",
        "op": "Const",
        "attr": {
          "dtype": { "type": "DT_FLOAT" },
          "value": {
            "tensor": {
              "dtype": "DT_FLOAT",
              "tensorShape": {
                "dim": [
                  { "size": "1" },
                  { "size": "1" },
                  { "size": "768" },
                  { "size": "512" }
                ]
              }
            }
          }
        }
      },
      {
        "name": "27589",
        "op": "Const",
        "attr": {
          "dtype": { "type": "DT_FLOAT" },
          "value": {
            "tensor": {
              "dtype": "DT_FLOAT",
              "tensorShape": { "dim": [{ "size": "512" }] }
            }
          }
        }
      },
      {
        "name": "27591",
        "op": "Const",
        "attr": {
          "value": {
            "tensor": {
              "dtype": "DT_INT64",
              "tensorShape": { "dim": [{ "size": "4" }] }
            }
          },
          "dtype": { "type": "DT_INT64" }
        }
      },
      {
        "name": "27593",
        "op": "Const",
        "attr": {
          "dtype": { "type": "DT_INT64" },
          "value": {
            "tensor": {
              "dtype": "DT_INT64",
              "tensorShape": { "dim": [{ "size": "4" }] }
            }
          }
        }
      },
      {
        "name": "PartitionedCall/model_27/tf.strided_slice_35/ones_like",
        "op": "Const",
        "attr": {
          "value": {
            "tensor": {
              "dtype": "DT_INT64",
              "tensorShape": { "dim": [{ "size": "4" }] }
            }
          },
          "dtype": { "type": "DT_INT64" }
        }
      },
      {
        "name": "27595",
        "op": "Const",
        "attr": {
          "value": {
            "tensor": {
              "dtype": "DT_FLOAT",
              "tensorShape": {
                "dim": [
                  { "size": "3" },
                  { "size": "3" },
                  { "size": "256" },
                  { "size": "256" }
                ]
              }
            }
          },
          "dtype": { "type": "DT_FLOAT" }
        }
      },
      {
        "name": "27597",
        "op": "Const",
        "attr": {
          "value": {
            "tensor": {
              "dtype": "DT_FLOAT",
              "tensorShape": { "dim": [{ "size": "256" }] }
            }
          },
          "dtype": { "type": "DT_FLOAT" }
        }
      },
      {
        "name": "27599",
        "op": "Const",
        "attr": {
          "dtype": { "type": "DT_FLOAT" },
          "value": {
            "tensor": {
              "dtype": "DT_FLOAT",
              "tensorShape": {
                "dim": [
                  { "size": "3" },
                  { "size": "3" },
                  { "size": "256" },
                  { "size": "256" }
                ]
              }
            }
          }
        }
      },
      {
        "name": "27601",
        "op": "Const",
        "attr": {
          "dtype": { "type": "DT_FLOAT" },
          "value": {
            "tensor": {
              "dtype": "DT_FLOAT",
              "tensorShape": { "dim": [{ "size": "256" }] }
            }
          }
        }
      },
      {
        "name": "PartitionedCall/model_27/tf.concat_36/concat/axis",
        "op": "Const",
        "attr": {
          "dtype": { "type": "DT_INT32" },
          "value": { "tensor": { "dtype": "DT_INT32", "tensorShape": {} } }
        }
      },
      {
        "name": "27607",
        "op": "Const",
        "attr": {
          "value": {
            "tensor": {
              "dtype": "DT_FLOAT",
              "tensorShape": {
                "dim": [
                  { "size": "1" },
                  { "size": "1" },
                  { "size": "768" },
                  { "size": "512" }
                ]
              }
            }
          },
          "dtype": { "type": "DT_FLOAT" }
        }
      },
      {
        "name": "27609",
        "op": "Const",
        "attr": {
          "dtype": { "type": "DT_FLOAT" },
          "value": {
            "tensor": {
              "dtype": "DT_FLOAT",
              "tensorShape": { "dim": [{ "size": "512" }] }
            }
          }
        }
      },
      {
        "name": "27611",
        "op": "Const",
        "attr": {
          "value": {
            "tensor": {
              "dtype": "DT_FLOAT",
              "tensorShape": {
                "dim": [
                  { "size": "3" },
                  { "size": "3" },
                  { "size": "512" },
                  { "size": "128" }
                ]
              }
            }
          },
          "dtype": { "type": "DT_FLOAT" }
        }
      },
      {
        "name": "27623",
        "op": "Const",
        "attr": {
          "dtype": { "type": "DT_FLOAT" },
          "value": {
            "tensor": {
              "dtype": "DT_FLOAT",
              "tensorShape": { "dim": [{ "size": "128" }] }
            }
          }
        }
      },
      {
        "name": "27635",
        "op": "Const",
        "attr": {
          "value": {
            "tensor": {
              "dtype": "DT_FLOAT",
              "tensorShape": {
                "dim": [
                  { "size": "3" },
                  { "size": "3" },
                  { "size": "128" },
                  { "size": "128" }
                ]
              }
            }
          },
          "dtype": { "type": "DT_FLOAT" }
        }
      },
      {
        "name": "27647",
        "op": "Const",
        "attr": {
          "value": {
            "tensor": {
              "dtype": "DT_FLOAT",
              "tensorShape": { "dim": [{ "size": "128" }] }
            }
          },
          "dtype": { "type": "DT_FLOAT" }
        }
      },
      {
        "name": "27659",
        "op": "Const",
        "attr": {
          "value": {
            "tensor": {
              "dtype": "DT_FLOAT",
              "tensorShape": {
                "dim": [
                  { "size": "1" },
                  { "size": "1" },
                  { "size": "128" },
                  { "size": "5" }
                ]
              }
            }
          },
          "dtype": { "type": "DT_FLOAT" }
        }
      },
      {
        "name": "27673",
        "op": "Const",
        "attr": {
          "value": {
            "tensor": {
              "dtype": "DT_FLOAT",
              "tensorShape": { "dim": [{ "size": "5" }] }
            }
          },
          "dtype": { "type": "DT_FLOAT" }
        }
      },
      {
        "name": "PartitionedCall/model_27/tf.concat_37/concat/axis",
        "op": "Const",
        "attr": {
          "value": { "tensor": { "dtype": "DT_INT32", "tensorShape": {} } },
          "dtype": { "type": "DT_INT32" }
        }
      },
      {
        "name": "PartitionedCall/model_27/tf.compat.v1.transpose_40/transpose/perm",
        "op": "Const",
        "attr": {
          "dtype": { "type": "DT_INT32" },
          "value": {
            "tensor": {
              "dtype": "DT_INT32",
              "tensorShape": { "dim": [{ "size": "4" }] }
            }
          }
        }
      },
      {
        "name": "PartitionedCall/model_27/tf.reshape_23/Reshape/shape",
        "op": "Const",
        "attr": {
          "dtype": { "type": "DT_INT32" },
          "value": {
            "tensor": {
              "dtype": "DT_INT32",
              "tensorShape": { "dim": [{ "size": "3" }] }
            }
          }
        }
      },
      {
        "name": "PartitionedCall/model_27/tf.concat_38/concat/axis",
        "op": "Const",
        "attr": {
          "value": { "tensor": { "dtype": "DT_INT32", "tensorShape": {} } },
          "dtype": { "type": "DT_INT32" }
        }
      },
      {
        "name": "27703",
        "op": "Const",
        "attr": {
          "value": {
            "tensor": {
              "dtype": "DT_INT64",
              "tensorShape": { "dim": [{ "size": "3" }] }
            }
          },
          "dtype": { "type": "DT_INT64" }
        }
      },
      {
        "name": "27705",
        "op": "Const",
        "attr": {
          "value": {
            "tensor": {
              "dtype": "DT_INT64",
              "tensorShape": { "dim": [{ "size": "3" }] }
            }
          },
          "dtype": { "type": "DT_INT64" }
        }
      },
      {
        "name": "PartitionedCall/model_27/tf.strided_slice_37/StridedSlice/strides",
        "op": "Const",
        "attr": {
          "value": {
            "tensor": {
              "dtype": "DT_INT64",
              "tensorShape": { "dim": [{ "size": "3" }] }
            }
          },
          "dtype": { "type": "DT_INT64" }
        }
      },
      {
        "name": "PartitionedCall/model_27/output0/concat/axis",
        "op": "Const",
        "attr": {
          "value": { "tensor": { "dtype": "DT_INT32", "tensorShape": {} } },
          "dtype": { "type": "DT_INT32" }
        }
      },
      {
        "name": "x",
        "op": "Placeholder",
        "attr": {
          "shape": {
            "shape": {
              "dim": [
                { "size": "1" },
                { "size": "640" },
                { "size": "640" },
                { "size": "3" }
              ]
            }
          },
          "dtype": { "type": "DT_FLOAT" }
        }
      },
      {
        "name": "PartitionedCall/model_27/tf.compat.v1.pad_7/Pad",
        "op": "Pad",
        "input": ["x", "27353"],
        "attr": {
          "T": { "type": "DT_FLOAT" },
          "Tpaddings": { "type": "DT_INT32" }
        }
      },
      {
        "name": "PartitionedCall/model_27/tf.math.add_77/Add",
        "op": "_FusedConv2D",
        "input": [
          "PartitionedCall/model_27/tf.compat.v1.pad_7/Pad",
          "27355",
          "27357"
        ],
        "device": "/device:CPU:0",
        "attr": {
          "T": { "type": "DT_FLOAT" },
          "leakyrelu_alpha": { "f": 0.2 },
          "explicit_paddings": { "list": {} },
          "data_format": { "s": "TkhXQw==" },
          "dilations": { "list": { "i": ["1", "1", "1", "1"] } },
          "fused_ops": { "list": { "s": ["Qmlhc0FkZA=="] } },
          "epsilon": { "f": 0.0 },
          "TArgs": { "list": { "type": ["DT_FLOAT"] } },
          "num_host_args": { "i": "0" },
          "padding": { "s": "VkFMSUQ=" },
          "strides": { "list": { "i": ["1", "2", "2", "1"] } },
          "use_cudnn_on_gpu": { "b": true },
          "num_args": { "i": "1" },
          "filter_format": { "s": "SFdJTw==" }
        }
      },
      {
        "name": "PartitionedCall/model_27/tf.math.sigmoid_58/Sigmoid",
        "op": "Sigmoid",
        "input": ["PartitionedCall/model_27/tf.math.add_77/Add"],
        "attr": { "T": { "type": "DT_FLOAT" } }
      },
      {
        "name": "PartitionedCall/model_27/tf.math.multiply_256/Mul",
        "op": "Mul",
        "input": [
          "PartitionedCall/model_27/tf.math.add_77/Add",
          "PartitionedCall/model_27/tf.math.sigmoid_58/Sigmoid"
        ],
        "attr": { "T": { "type": "DT_FLOAT" } }
      },
      {
        "name": "PartitionedCall/model_27/tf.compat.v1.pad_8/Pad",
        "op": "Pad",
        "input": ["PartitionedCall/model_27/tf.math.multiply_256/Mul", "27359"],
        "attr": {
          "Tpaddings": { "type": "DT_INT32" },
          "T": { "type": "DT_FLOAT" }
        }
      },
      {
        "name": "PartitionedCall/model_27/tf.math.add_78/Add",
        "op": "_FusedConv2D",
        "input": [
          "PartitionedCall/model_27/tf.compat.v1.pad_8/Pad",
          "27361",
          "27363"
        ],
        "device": "/device:CPU:0",
        "attr": {
          "num_args": { "i": "1" },
          "strides": { "list": { "i": ["1", "2", "2", "1"] } },
          "explicit_paddings": { "list": {} },
          "data_format": { "s": "TkhXQw==" },
          "num_host_args": { "i": "0" },
          "use_cudnn_on_gpu": { "b": true },
          "epsilon": { "f": 0.0 },
          "leakyrelu_alpha": { "f": 0.2 },
          "padding": { "s": "VkFMSUQ=" },
          "fused_ops": { "list": { "s": ["Qmlhc0FkZA=="] } },
          "T": { "type": "DT_FLOAT" },
          "TArgs": { "list": { "type": ["DT_FLOAT"] } },
          "dilations": { "list": { "i": ["1", "1", "1", "1"] } },
          "filter_format": { "s": "SFdJTw==" }
        }
      },
      {
        "name": "PartitionedCall/model_27/tf.math.sigmoid_59/Sigmoid",
        "op": "Sigmoid",
        "input": ["PartitionedCall/model_27/tf.math.add_78/Add"],
        "attr": { "T": { "type": "DT_FLOAT" } }
      },
      {
        "name": "PartitionedCall/model_27/tf.math.multiply_260/Mul",
        "op": "Mul",
        "input": [
          "PartitionedCall/model_27/tf.math.add_78/Add",
          "PartitionedCall/model_27/tf.math.sigmoid_59/Sigmoid"
        ],
        "attr": { "T": { "type": "DT_FLOAT" } }
      },
      {
        "name": "PartitionedCall/model_27/tf.math.add_79/Add",
        "op": "_FusedConv2D",
        "input": [
          "PartitionedCall/model_27/tf.math.multiply_260/Mul",
          "27365",
          "27367"
        ],
        "device": "/device:CPU:0",
        "attr": {
          "epsilon": { "f": 0.0 },
          "dilations": { "list": { "i": ["1", "1", "1", "1"] } },
          "TArgs": { "list": { "type": ["DT_FLOAT"] } },
          "use_cudnn_on_gpu": { "b": true },
          "T": { "type": "DT_FLOAT" },
          "num_args": { "i": "1" },
          "explicit_paddings": { "list": {} },
          "filter_format": { "s": "SFdJTw==" },
          "data_format": { "s": "TkhXQw==" },
          "fused_ops": { "list": { "s": ["Qmlhc0FkZA=="] } },
          "leakyrelu_alpha": { "f": 0.2 },
          "num_host_args": { "i": "0" },
          "strides": { "list": { "i": ["1", "1", "1", "1"] } },
          "padding": { "s": "U0FNRQ==" }
        }
      },
      {
        "name": "PartitionedCall/model_27/tf.math.sigmoid_60/Sigmoid",
        "op": "Sigmoid",
        "input": ["PartitionedCall/model_27/tf.math.add_79/Add"],
        "attr": { "T": { "type": "DT_FLOAT" } }
      },
      {
        "name": "PartitionedCall/model_27/tf.math.multiply_264/Mul",
        "op": "Mul",
        "input": [
          "PartitionedCall/model_27/tf.math.add_79/Add",
          "PartitionedCall/model_27/tf.math.sigmoid_60/Sigmoid"
        ],
        "attr": { "T": { "type": "DT_FLOAT" } }
      },
      {
        "name": "PartitionedCall/model_27/tf.strided_slice_20/StridedSlice",
        "op": "StridedSlice",
        "input": [
          "PartitionedCall/model_27/tf.math.multiply_264/Mul",
          "27381",
          "27383",
          "PartitionedCall/model_27/tf.strided_slice_20/ones_like"
        ],
        "attr": {
          "T": { "type": "DT_FLOAT" },
          "shrink_axis_mask": { "i": "0" },
          "Index": { "type": "DT_INT64" },
          "begin_mask": { "i": "15" },
          "ellipsis_mask": { "i": "0" },
          "end_mask": { "i": "7" },
          "new_axis_mask": { "i": "0" }
        }
      },
      {
        "name": "PartitionedCall/model_27/tf.strided_slice_21/StridedSlice",
        "op": "StridedSlice",
        "input": [
          "PartitionedCall/model_27/tf.math.multiply_264/Mul",
          "27369",
          "27371",
          "PartitionedCall/model_27/tf.strided_slice_21/ones_like"
        ],
        "attr": {
          "Index": { "type": "DT_INT64" },
          "shrink_axis_mask": { "i": "0" },
          "begin_mask": { "i": "7" },
          "ellipsis_mask": { "i": "0" },
          "new_axis_mask": { "i": "0" },
          "T": { "type": "DT_FLOAT" },
          "end_mask": { "i": "7" }
        }
      },
      {
        "name": "PartitionedCall/model_27/tf.math.add_80/Add",
        "op": "_FusedConv2D",
        "input": [
          "PartitionedCall/model_27/tf.strided_slice_21/StridedSlice",
          "27373",
          "27375"
        ],
        "device": "/device:CPU:0",
        "attr": {
          "padding": { "s": "U0FNRQ==" },
          "filter_format": { "s": "SFdJTw==" },
          "T": { "type": "DT_FLOAT" },
          "num_host_args": { "i": "0" },
          "explicit_paddings": { "list": {} },
          "use_cudnn_on_gpu": { "b": true },
          "strides": { "list": { "i": ["1", "1", "1", "1"] } },
          "num_args": { "i": "1" },
          "TArgs": { "list": { "type": ["DT_FLOAT"] } },
          "dilations": { "list": { "i": ["1", "1", "1", "1"] } },
          "epsilon": { "f": 0.0 },
          "leakyrelu_alpha": { "f": 0.2 },
          "fused_ops": { "list": { "s": ["Qmlhc0FkZA=="] } },
          "data_format": { "s": "TkhXQw==" }
        }
      },
      {
        "name": "PartitionedCall/model_27/tf.math.sigmoid_61/Sigmoid",
        "op": "Sigmoid",
        "input": ["PartitionedCall/model_27/tf.math.add_80/Add"],
        "attr": { "T": { "type": "DT_FLOAT" } }
      },
      {
        "name": "PartitionedCall/model_27/tf.math.multiply_268/Mul",
        "op": "Mul",
        "input": [
          "PartitionedCall/model_27/tf.math.add_80/Add",
          "PartitionedCall/model_27/tf.math.sigmoid_61/Sigmoid"
        ],
        "attr": { "T": { "type": "DT_FLOAT" } }
      },
      {
        "name": "PartitionedCall/model_27/tf.math.add_81/Add",
        "op": "_FusedConv2D",
        "input": [
          "PartitionedCall/model_27/tf.math.multiply_268/Mul",
          "27377",
          "27379"
        ],
        "device": "/device:CPU:0",
        "attr": {
          "fused_ops": { "list": { "s": ["Qmlhc0FkZA=="] } },
          "use_cudnn_on_gpu": { "b": true },
          "dilations": { "list": { "i": ["1", "1", "1", "1"] } },
          "explicit_paddings": { "list": {} },
          "num_args": { "i": "1" },
          "padding": { "s": "U0FNRQ==" },
          "data_format": { "s": "TkhXQw==" },
          "epsilon": { "f": 0.0 },
          "filter_format": { "s": "SFdJTw==" },
          "strides": { "list": { "i": ["1", "1", "1", "1"] } },
          "num_host_args": { "i": "0" },
          "leakyrelu_alpha": { "f": 0.2 },
          "TArgs": { "list": { "type": ["DT_FLOAT"] } },
          "T": { "type": "DT_FLOAT" }
        }
      },
      {
        "name": "PartitionedCall/model_27/tf.math.sigmoid_62/Sigmoid",
        "op": "Sigmoid",
        "input": ["PartitionedCall/model_27/tf.math.add_81/Add"],
        "attr": { "T": { "type": "DT_FLOAT" } }
      },
      {
        "name": "PartitionedCall/model_27/tf.math.multiply_272/Mul",
        "op": "Mul",
        "input": [
          "PartitionedCall/model_27/tf.math.add_81/Add",
          "PartitionedCall/model_27/tf.math.sigmoid_62/Sigmoid"
        ],
        "attr": { "T": { "type": "DT_FLOAT" } }
      },
      {
        "name": "PartitionedCall/model_27/tf.math.add_83/Add",
        "op": "AddV2",
        "input": [
          "PartitionedCall/model_27/tf.strided_slice_21/StridedSlice",
          "PartitionedCall/model_27/tf.math.multiply_272/Mul"
        ],
        "attr": { "T": { "type": "DT_FLOAT" } }
      },
      {
        "name": "PartitionedCall/model_27/tf.concat_22/concat",
        "op": "ConcatV2",
        "input": [
          "PartitionedCall/model_27/tf.strided_slice_20/StridedSlice",
          "PartitionedCall/model_27/tf.strided_slice_21/StridedSlice",
          "PartitionedCall/model_27/tf.math.add_83/Add",
          "PartitionedCall/model_27/tf.concat_22/concat/axis"
        ],
        "attr": {
          "T": { "type": "DT_FLOAT" },
          "N": { "i": "3" },
          "Tidx": { "type": "DT_INT32" }
        }
      },
      {
        "name": "PartitionedCall/model_27/tf.math.add_84/Add",
        "op": "_FusedConv2D",
        "input": [
          "PartitionedCall/model_27/tf.concat_22/concat",
          "27385",
          "27387"
        ],
        "device": "/device:CPU:0",
        "attr": {
          "explicit_paddings": { "list": {} },
          "epsilon": { "f": 0.0 },
          "padding": { "s": "U0FNRQ==" },
          "TArgs": { "list": { "type": ["DT_FLOAT"] } },
          "leakyrelu_alpha": { "f": 0.2 },
          "data_format": { "s": "TkhXQw==" },
          "fused_ops": { "list": { "s": ["Qmlhc0FkZA=="] } },
          "filter_format": { "s": "SFdJTw==" },
          "num_args": { "i": "1" },
          "dilations": { "list": { "i": ["1", "1", "1", "1"] } },
          "strides": { "list": { "i": ["1", "1", "1", "1"] } },
          "num_host_args": { "i": "0" },
          "T": { "type": "DT_FLOAT" },
          "use_cudnn_on_gpu": { "b": true }
        }
      },
      {
        "name": "PartitionedCall/model_27/tf.math.sigmoid_63/Sigmoid",
        "op": "Sigmoid",
        "input": ["PartitionedCall/model_27/tf.math.add_84/Add"],
        "attr": { "T": { "type": "DT_FLOAT" } }
      },
      {
        "name": "PartitionedCall/model_27/tf.math.multiply_278/Mul",
        "op": "Mul",
        "input": [
          "PartitionedCall/model_27/tf.math.add_84/Add",
          "PartitionedCall/model_27/tf.math.sigmoid_63/Sigmoid"
        ],
        "attr": { "T": { "type": "DT_FLOAT" } }
      },
      {
        "name": "PartitionedCall/model_27/tf.compat.v1.pad_9/Pad",
        "op": "Pad",
        "input": ["PartitionedCall/model_27/tf.math.multiply_278/Mul", "27389"],
        "attr": {
          "T": { "type": "DT_FLOAT" },
          "Tpaddings": { "type": "DT_INT32" }
        }
      },
      {
        "name": "PartitionedCall/model_27/tf.math.add_85/Add",
        "op": "_FusedConv2D",
        "input": [
          "PartitionedCall/model_27/tf.compat.v1.pad_9/Pad",
          "27391",
          "27393"
        ],
        "device": "/device:CPU:0",
        "attr": {
          "leakyrelu_alpha": { "f": 0.2 },
          "use_cudnn_on_gpu": { "b": true },
          "fused_ops": { "list": { "s": ["Qmlhc0FkZA=="] } },
          "TArgs": { "list": { "type": ["DT_FLOAT"] } },
          "padding": { "s": "VkFMSUQ=" },
          "T": { "type": "DT_FLOAT" },
          "num_host_args": { "i": "0" },
          "explicit_paddings": { "list": {} },
          "num_args": { "i": "1" },
          "data_format": { "s": "TkhXQw==" },
          "filter_format": { "s": "SFdJTw==" },
          "dilations": { "list": { "i": ["1", "1", "1", "1"] } },
          "epsilon": { "f": 0.0 },
          "strides": { "list": { "i": ["1", "2", "2", "1"] } }
        }
      },
      {
        "name": "PartitionedCall/model_27/tf.math.sigmoid_64/Sigmoid",
        "op": "Sigmoid",
        "input": ["PartitionedCall/model_27/tf.math.add_85/Add"],
        "attr": { "T": { "type": "DT_FLOAT" } }
      },
      {
        "name": "PartitionedCall/model_27/tf.math.multiply_282/Mul",
        "op": "Mul",
        "input": [
          "PartitionedCall/model_27/tf.math.add_85/Add",
          "PartitionedCall/model_27/tf.math.sigmoid_64/Sigmoid"
        ],
        "attr": { "T": { "type": "DT_FLOAT" } }
      },
      {
        "name": "PartitionedCall/model_27/tf.math.add_86/Add",
        "op": "_FusedConv2D",
        "input": [
          "PartitionedCall/model_27/tf.math.multiply_282/Mul",
          "27395",
          "27397"
        ],
        "device": "/device:CPU:0",
        "attr": {
          "filter_format": { "s": "SFdJTw==" },
          "explicit_paddings": { "list": {} },
          "num_args": { "i": "1" },
          "fused_ops": { "list": { "s": ["Qmlhc0FkZA=="] } },
          "num_host_args": { "i": "0" },
          "use_cudnn_on_gpu": { "b": true },
          "strides": { "list": { "i": ["1", "1", "1", "1"] } },
          "data_format": { "s": "TkhXQw==" },
          "epsilon": { "f": 0.0 },
          "dilations": { "list": { "i": ["1", "1", "1", "1"] } },
          "T": { "type": "DT_FLOAT" },
          "padding": { "s": "U0FNRQ==" },
          "leakyrelu_alpha": { "f": 0.2 },
          "TArgs": { "list": { "type": ["DT_FLOAT"] } }
        }
      },
      {
        "name": "PartitionedCall/model_27/tf.math.sigmoid_65/Sigmoid",
        "op": "Sigmoid",
        "input": ["PartitionedCall/model_27/tf.math.add_86/Add"],
        "attr": { "T": { "type": "DT_FLOAT" } }
      },
      {
        "name": "PartitionedCall/model_27/tf.math.multiply_286/Mul",
        "op": "Mul",
        "input": [
          "PartitionedCall/model_27/tf.math.add_86/Add",
          "PartitionedCall/model_27/tf.math.sigmoid_65/Sigmoid"
        ],
        "attr": { "T": { "type": "DT_FLOAT" } }
      },
      {
        "name": "PartitionedCall/model_27/tf.strided_slice_22/StridedSlice",
        "op": "StridedSlice",
        "input": [
          "PartitionedCall/model_27/tf.math.multiply_286/Mul",
          "27419",
          "27421",
          "PartitionedCall/model_27/tf.strided_slice_22/ones_like"
        ],
        "attr": {
          "ellipsis_mask": { "i": "0" },
          "Index": { "type": "DT_INT64" },
          "shrink_axis_mask": { "i": "0" },
          "T": { "type": "DT_FLOAT" },
          "new_axis_mask": { "i": "0" },
          "end_mask": { "i": "7" },
          "begin_mask": { "i": "15" }
        }
      },
      {
        "name": "PartitionedCall/model_27/tf.strided_slice_23/StridedSlice",
        "op": "StridedSlice",
        "input": [
          "PartitionedCall/model_27/tf.math.multiply_286/Mul",
          "27399",
          "27401",
          "PartitionedCall/model_27/tf.strided_slice_23/ones_like"
        ],
        "attr": {
          "new_axis_mask": { "i": "0" },
          "Index": { "type": "DT_INT64" },
          "ellipsis_mask": { "i": "0" },
          "begin_mask": { "i": "7" },
          "T": { "type": "DT_FLOAT" },
          "shrink_axis_mask": { "i": "0" },
          "end_mask": { "i": "7" }
        }
      },
      {
        "name": "PartitionedCall/model_27/tf.math.add_87/Add",
        "op": "_FusedConv2D",
        "input": [
          "PartitionedCall/model_27/tf.strided_slice_23/StridedSlice",
          "27403",
          "27405"
        ],
        "device": "/device:CPU:0",
        "attr": {
          "explicit_paddings": { "list": {} },
          "fused_ops": { "list": { "s": ["Qmlhc0FkZA=="] } },
          "epsilon": { "f": 0.0 },
          "num_host_args": { "i": "0" },
          "TArgs": { "list": { "type": ["DT_FLOAT"] } },
          "padding": { "s": "U0FNRQ==" },
          "T": { "type": "DT_FLOAT" },
          "data_format": { "s": "TkhXQw==" },
          "use_cudnn_on_gpu": { "b": true },
          "num_args": { "i": "1" },
          "dilations": { "list": { "i": ["1", "1", "1", "1"] } },
          "filter_format": { "s": "SFdJTw==" },
          "leakyrelu_alpha": { "f": 0.2 },
          "strides": { "list": { "i": ["1", "1", "1", "1"] } }
        }
      },
      {
        "name": "PartitionedCall/model_27/tf.math.sigmoid_66/Sigmoid",
        "op": "Sigmoid",
        "input": ["PartitionedCall/model_27/tf.math.add_87/Add"],
        "attr": { "T": { "type": "DT_FLOAT" } }
      },
      {
        "name": "PartitionedCall/model_27/tf.math.multiply_290/Mul",
        "op": "Mul",
        "input": [
          "PartitionedCall/model_27/tf.math.add_87/Add",
          "PartitionedCall/model_27/tf.math.sigmoid_66/Sigmoid"
        ],
        "attr": { "T": { "type": "DT_FLOAT" } }
      },
      {
        "name": "PartitionedCall/model_27/tf.math.add_88/Add",
        "op": "_FusedConv2D",
        "input": [
          "PartitionedCall/model_27/tf.math.multiply_290/Mul",
          "27407",
          "27409"
        ],
        "device": "/device:CPU:0",
        "attr": {
          "fused_ops": { "list": { "s": ["Qmlhc0FkZA=="] } },
          "strides": { "list": { "i": ["1", "1", "1", "1"] } },
          "dilations": { "list": { "i": ["1", "1", "1", "1"] } },
          "TArgs": { "list": { "type": ["DT_FLOAT"] } },
          "use_cudnn_on_gpu": { "b": true },
          "num_host_args": { "i": "0" },
          "explicit_paddings": { "list": {} },
          "num_args": { "i": "1" },
          "epsilon": { "f": 0.0 },
          "padding": { "s": "U0FNRQ==" },
          "leakyrelu_alpha": { "f": 0.2 },
          "T": { "type": "DT_FLOAT" },
          "data_format": { "s": "TkhXQw==" },
          "filter_format": { "s": "SFdJTw==" }
        }
      },
      {
        "name": "PartitionedCall/model_27/tf.math.sigmoid_67/Sigmoid",
        "op": "Sigmoid",
        "input": ["PartitionedCall/model_27/tf.math.add_88/Add"],
        "attr": { "T": { "type": "DT_FLOAT" } }
      },
      {
        "name": "PartitionedCall/model_27/tf.math.multiply_294/Mul",
        "op": "Mul",
        "input": [
          "PartitionedCall/model_27/tf.math.add_88/Add",
          "PartitionedCall/model_27/tf.math.sigmoid_67/Sigmoid"
        ],
        "attr": { "T": { "type": "DT_FLOAT" } }
      },
      {
        "name": "PartitionedCall/model_27/tf.math.add_90/Add",
        "op": "AddV2",
        "input": [
          "PartitionedCall/model_27/tf.strided_slice_23/StridedSlice",
          "PartitionedCall/model_27/tf.math.multiply_294/Mul"
        ],
        "attr": { "T": { "type": "DT_FLOAT" } }
      },
      {
        "name": "PartitionedCall/model_27/tf.math.add_91/Add",
        "op": "_FusedConv2D",
        "input": [
          "PartitionedCall/model_27/tf.math.add_90/Add",
          "27411",
          "27413"
        ],
        "device": "/device:CPU:0",
        "attr": {
          "num_host_args": { "i": "0" },
          "epsilon": { "f": 0.0 },
          "explicit_paddings": { "list": {} },
          "data_format": { "s": "TkhXQw==" },
          "dilations": { "list": { "i": ["1", "1", "1", "1"] } },
          "TArgs": { "list": { "type": ["DT_FLOAT"] } },
          "leakyrelu_alpha": { "f": 0.2 },
          "T": { "type": "DT_FLOAT" },
          "padding": { "s": "U0FNRQ==" },
          "fused_ops": { "list": { "s": ["Qmlhc0FkZA=="] } },
          "strides": { "list": { "i": ["1", "1", "1", "1"] } },
          "use_cudnn_on_gpu": { "b": true },
          "num_args": { "i": "1" },
          "filter_format": { "s": "SFdJTw==" }
        }
      },
      {
        "name": "PartitionedCall/model_27/tf.math.sigmoid_68/Sigmoid",
        "op": "Sigmoid",
        "input": ["PartitionedCall/model_27/tf.math.add_91/Add"],
        "attr": { "T": { "type": "DT_FLOAT" } }
      },
      {
        "name": "PartitionedCall/model_27/tf.math.multiply_300/Mul",
        "op": "Mul",
        "input": [
          "PartitionedCall/model_27/tf.math.add_91/Add",
          "PartitionedCall/model_27/tf.math.sigmoid_68/Sigmoid"
        ],
        "attr": { "T": { "type": "DT_FLOAT" } }
      },
      {
        "name": "PartitionedCall/model_27/tf.math.add_92/Add",
        "op": "_FusedConv2D",
        "input": [
          "PartitionedCall/model_27/tf.math.multiply_300/Mul",
          "27415",
          "27417"
        ],
        "device": "/device:CPU:0",
        "attr": {
          "epsilon": { "f": 0.0 },
          "num_args": { "i": "1" },
          "leakyrelu_alpha": { "f": 0.2 },
          "TArgs": { "list": { "type": ["DT_FLOAT"] } },
          "use_cudnn_on_gpu": { "b": true },
          "explicit_paddings": { "list": {} },
          "dilations": { "list": { "i": ["1", "1", "1", "1"] } },
          "filter_format": { "s": "SFdJTw==" },
          "padding": { "s": "U0FNRQ==" },
          "data_format": { "s": "TkhXQw==" },
          "num_host_args": { "i": "0" },
          "strides": { "list": { "i": ["1", "1", "1", "1"] } },
          "T": { "type": "DT_FLOAT" },
          "fused_ops": { "list": { "s": ["Qmlhc0FkZA=="] } }
        }
      },
      {
        "name": "PartitionedCall/model_27/tf.math.sigmoid_69/Sigmoid",
        "op": "Sigmoid",
        "input": ["PartitionedCall/model_27/tf.math.add_92/Add"],
        "attr": { "T": { "type": "DT_FLOAT" } }
      },
      {
        "name": "PartitionedCall/model_27/tf.math.multiply_304/Mul",
        "op": "Mul",
        "input": [
          "PartitionedCall/model_27/tf.math.add_92/Add",
          "PartitionedCall/model_27/tf.math.sigmoid_69/Sigmoid"
        ],
        "attr": { "T": { "type": "DT_FLOAT" } }
      },
      {
        "name": "PartitionedCall/model_27/tf.math.add_94/Add",
        "op": "AddV2",
        "input": [
          "PartitionedCall/model_27/tf.math.add_90/Add",
          "PartitionedCall/model_27/tf.math.multiply_304/Mul"
        ],
        "attr": { "T": { "type": "DT_FLOAT" } }
      },
      {
        "name": "PartitionedCall/model_27/tf.concat_23/concat",
        "op": "ConcatV2",
        "input": [
          "PartitionedCall/model_27/tf.strided_slice_22/StridedSlice",
          "PartitionedCall/model_27/tf.strided_slice_23/StridedSlice",
          "PartitionedCall/model_27/tf.math.add_90/Add",
          "PartitionedCall/model_27/tf.math.add_94/Add",
          "PartitionedCall/model_27/tf.concat_23/concat/axis"
        ],
        "attr": {
          "Tidx": { "type": "DT_INT32" },
          "T": { "type": "DT_FLOAT" },
          "N": { "i": "4" }
        }
      },
      {
        "name": "PartitionedCall/model_27/tf.math.add_95/Add",
        "op": "_FusedConv2D",
        "input": [
          "PartitionedCall/model_27/tf.concat_23/concat",
          "27423",
          "27425"
        ],
        "device": "/device:CPU:0",
        "attr": {
          "strides": { "list": { "i": ["1", "1", "1", "1"] } },
          "epsilon": { "f": 0.0 },
          "leakyrelu_alpha": { "f": 0.2 },
          "T": { "type": "DT_FLOAT" },
          "use_cudnn_on_gpu": { "b": true },
          "explicit_paddings": { "list": {} },
          "fused_ops": { "list": { "s": ["Qmlhc0FkZA=="] } },
          "dilations": { "list": { "i": ["1", "1", "1", "1"] } },
          "data_format": { "s": "TkhXQw==" },
          "padding": { "s": "U0FNRQ==" },
          "TArgs": { "list": { "type": ["DT_FLOAT"] } },
          "filter_format": { "s": "SFdJTw==" },
          "num_host_args": { "i": "0" },
          "num_args": { "i": "1" }
        }
      },
      {
        "name": "PartitionedCall/model_27/tf.math.sigmoid_70/Sigmoid",
        "op": "Sigmoid",
        "input": ["PartitionedCall/model_27/tf.math.add_95/Add"],
        "attr": { "T": { "type": "DT_FLOAT" } }
      },
      {
        "name": "PartitionedCall/model_27/tf.math.multiply_310/Mul",
        "op": "Mul",
        "input": [
          "PartitionedCall/model_27/tf.math.add_95/Add",
          "PartitionedCall/model_27/tf.math.sigmoid_70/Sigmoid"
        ],
        "attr": { "T": { "type": "DT_FLOAT" } }
      },
      {
        "name": "PartitionedCall/model_27/tf.compat.v1.pad_10/Pad",
        "op": "Pad",
        "input": ["PartitionedCall/model_27/tf.math.multiply_310/Mul", "27427"],
        "attr": {
          "Tpaddings": { "type": "DT_INT32" },
          "T": { "type": "DT_FLOAT" }
        }
      },
      {
        "name": "PartitionedCall/model_27/tf.math.add_96/Add",
        "op": "_FusedConv2D",
        "input": [
          "PartitionedCall/model_27/tf.compat.v1.pad_10/Pad",
          "27429",
          "27431"
        ],
        "device": "/device:CPU:0",
        "attr": {
          "dilations": { "list": { "i": ["1", "1", "1", "1"] } },
          "use_cudnn_on_gpu": { "b": true },
          "leakyrelu_alpha": { "f": 0.2 },
          "num_args": { "i": "1" },
          "num_host_args": { "i": "0" },
          "fused_ops": { "list": { "s": ["Qmlhc0FkZA=="] } },
          "TArgs": { "list": { "type": ["DT_FLOAT"] } },
          "epsilon": { "f": 0.0 },
          "data_format": { "s": "TkhXQw==" },
          "filter_format": { "s": "SFdJTw==" },
          "explicit_paddings": { "list": {} },
          "T": { "type": "DT_FLOAT" },
          "padding": { "s": "VkFMSUQ=" },
          "strides": { "list": { "i": ["1", "2", "2", "1"] } }
        }
      },
      {
        "name": "PartitionedCall/model_27/tf.math.sigmoid_71/Sigmoid",
        "op": "Sigmoid",
        "input": ["PartitionedCall/model_27/tf.math.add_96/Add"],
        "attr": { "T": { "type": "DT_FLOAT" } }
      },
      {
        "name": "PartitionedCall/model_27/tf.math.multiply_314/Mul",
        "op": "Mul",
        "input": [
          "PartitionedCall/model_27/tf.math.add_96/Add",
          "PartitionedCall/model_27/tf.math.sigmoid_71/Sigmoid"
        ],
        "attr": { "T": { "type": "DT_FLOAT" } }
      },
      {
        "name": "PartitionedCall/model_27/tf.math.add_97/Add",
        "op": "_FusedConv2D",
        "input": [
          "PartitionedCall/model_27/tf.math.multiply_314/Mul",
          "27433",
          "27435"
        ],
        "device": "/device:CPU:0",
        "attr": {
          "dilations": { "list": { "i": ["1", "1", "1", "1"] } },
          "use_cudnn_on_gpu": { "b": true },
          "leakyrelu_alpha": { "f": 0.2 },
          "filter_format": { "s": "SFdJTw==" },
          "strides": { "list": { "i": ["1", "1", "1", "1"] } },
          "data_format": { "s": "TkhXQw==" },
          "num_args": { "i": "1" },
          "epsilon": { "f": 0.0 },
          "fused_ops": { "list": { "s": ["Qmlhc0FkZA=="] } },
          "explicit_paddings": { "list": {} },
          "num_host_args": { "i": "0" },
          "padding": { "s": "U0FNRQ==" },
          "TArgs": { "list": { "type": ["DT_FLOAT"] } },
          "T": { "type": "DT_FLOAT" }
        }
      },
      {
        "name": "PartitionedCall/model_27/tf.math.sigmoid_72/Sigmoid",
        "op": "Sigmoid",
        "input": ["PartitionedCall/model_27/tf.math.add_97/Add"],
        "attr": { "T": { "type": "DT_FLOAT" } }
      },
      {
        "name": "PartitionedCall/model_27/tf.math.multiply_318/Mul",
        "op": "Mul",
        "input": [
          "PartitionedCall/model_27/tf.math.add_97/Add",
          "PartitionedCall/model_27/tf.math.sigmoid_72/Sigmoid"
        ],
        "attr": { "T": { "type": "DT_FLOAT" } }
      },
      {
        "name": "PartitionedCall/model_27/tf.strided_slice_24/StridedSlice",
        "op": "StridedSlice",
        "input": [
          "PartitionedCall/model_27/tf.math.multiply_318/Mul",
          "27457",
          "27459",
          "PartitionedCall/model_27/tf.strided_slice_24/ones_like"
        ],
        "attr": {
          "new_axis_mask": { "i": "0" },
          "begin_mask": { "i": "15" },
          "ellipsis_mask": { "i": "0" },
          "shrink_axis_mask": { "i": "0" },
          "Index": { "type": "DT_INT64" },
          "end_mask": { "i": "7" },
          "T": { "type": "DT_FLOAT" }
        }
      },
      {
        "name": "PartitionedCall/model_27/tf.strided_slice_25/StridedSlice",
        "op": "StridedSlice",
        "input": [
          "PartitionedCall/model_27/tf.math.multiply_318/Mul",
          "27437",
          "27439",
          "PartitionedCall/model_27/tf.strided_slice_25/ones_like"
        ],
        "attr": {
          "T": { "type": "DT_FLOAT" },
          "shrink_axis_mask": { "i": "0" },
          "begin_mask": { "i": "7" },
          "end_mask": { "i": "7" },
          "Index": { "type": "DT_INT64" },
          "new_axis_mask": { "i": "0" },
          "ellipsis_mask": { "i": "0" }
        }
      },
      {
        "name": "PartitionedCall/model_27/tf.math.add_98/Add",
        "op": "_FusedConv2D",
        "input": [
          "PartitionedCall/model_27/tf.strided_slice_25/StridedSlice",
          "27441",
          "27443"
        ],
        "device": "/device:CPU:0",
        "attr": {
          "leakyrelu_alpha": { "f": 0.2 },
          "TArgs": { "list": { "type": ["DT_FLOAT"] } },
          "num_args": { "i": "1" },
          "use_cudnn_on_gpu": { "b": true },
          "fused_ops": { "list": { "s": ["Qmlhc0FkZA=="] } },
          "data_format": { "s": "TkhXQw==" },
          "strides": { "list": { "i": ["1", "1", "1", "1"] } },
          "padding": { "s": "U0FNRQ==" },
          "epsilon": { "f": 0.0 },
          "dilations": { "list": { "i": ["1", "1", "1", "1"] } },
          "T": { "type": "DT_FLOAT" },
          "num_host_args": { "i": "0" },
          "filter_format": { "s": "SFdJTw==" },
          "explicit_paddings": { "list": {} }
        }
      },
      {
        "name": "PartitionedCall/model_27/tf.math.sigmoid_73/Sigmoid",
        "op": "Sigmoid",
        "input": ["PartitionedCall/model_27/tf.math.add_98/Add"],
        "attr": { "T": { "type": "DT_FLOAT" } }
      },
      {
        "name": "PartitionedCall/model_27/tf.math.multiply_322/Mul",
        "op": "Mul",
        "input": [
          "PartitionedCall/model_27/tf.math.add_98/Add",
          "PartitionedCall/model_27/tf.math.sigmoid_73/Sigmoid"
        ],
        "attr": { "T": { "type": "DT_FLOAT" } }
      },
      {
        "name": "PartitionedCall/model_27/tf.math.add_99/Add",
        "op": "_FusedConv2D",
        "input": [
          "PartitionedCall/model_27/tf.math.multiply_322/Mul",
          "27445",
          "27447"
        ],
        "device": "/device:CPU:0",
        "attr": {
          "leakyrelu_alpha": { "f": 0.2 },
          "num_args": { "i": "1" },
          "padding": { "s": "U0FNRQ==" },
          "T": { "type": "DT_FLOAT" },
          "explicit_paddings": { "list": {} },
          "epsilon": { "f": 0.0 },
          "dilations": { "list": { "i": ["1", "1", "1", "1"] } },
          "data_format": { "s": "TkhXQw==" },
          "fused_ops": { "list": { "s": ["Qmlhc0FkZA=="] } },
          "use_cudnn_on_gpu": { "b": true },
          "TArgs": { "list": { "type": ["DT_FLOAT"] } },
          "strides": { "list": { "i": ["1", "1", "1", "1"] } },
          "filter_format": { "s": "SFdJTw==" },
          "num_host_args": { "i": "0" }
        }
      },
      {
        "name": "PartitionedCall/model_27/tf.math.sigmoid_74/Sigmoid",
        "op": "Sigmoid",
        "input": ["PartitionedCall/model_27/tf.math.add_99/Add"],
        "attr": { "T": { "type": "DT_FLOAT" } }
      },
      {
        "name": "PartitionedCall/model_27/tf.math.multiply_326/Mul",
        "op": "Mul",
        "input": [
          "PartitionedCall/model_27/tf.math.add_99/Add",
          "PartitionedCall/model_27/tf.math.sigmoid_74/Sigmoid"
        ],
        "attr": { "T": { "type": "DT_FLOAT" } }
      },
      {
        "name": "PartitionedCall/model_27/tf.math.add_101/Add",
        "op": "AddV2",
        "input": [
          "PartitionedCall/model_27/tf.strided_slice_25/StridedSlice",
          "PartitionedCall/model_27/tf.math.multiply_326/Mul"
        ],
        "attr": { "T": { "type": "DT_FLOAT" } }
      },
      {
        "name": "PartitionedCall/model_27/tf.math.add_102/Add",
        "op": "_FusedConv2D",
        "input": [
          "PartitionedCall/model_27/tf.math.add_101/Add",
          "27449",
          "27451"
        ],
        "device": "/device:CPU:0",
        "attr": {
          "padding": { "s": "U0FNRQ==" },
          "epsilon": { "f": 0.0 },
          "data_format": { "s": "TkhXQw==" },
          "num_args": { "i": "1" },
          "use_cudnn_on_gpu": { "b": true },
          "T": { "type": "DT_FLOAT" },
          "dilations": { "list": { "i": ["1", "1", "1", "1"] } },
          "filter_format": { "s": "SFdJTw==" },
          "leakyrelu_alpha": { "f": 0.2 },
          "fused_ops": { "list": { "s": ["Qmlhc0FkZA=="] } },
          "num_host_args": { "i": "0" },
          "explicit_paddings": { "list": {} },
          "TArgs": { "list": { "type": ["DT_FLOAT"] } },
          "strides": { "list": { "i": ["1", "1", "1", "1"] } }
        }
      },
      {
        "name": "PartitionedCall/model_27/tf.math.sigmoid_75/Sigmoid",
        "op": "Sigmoid",
        "input": ["PartitionedCall/model_27/tf.math.add_102/Add"],
        "attr": { "T": { "type": "DT_FLOAT" } }
      },
      {
        "name": "PartitionedCall/model_27/tf.math.multiply_332/Mul",
        "op": "Mul",
        "input": [
          "PartitionedCall/model_27/tf.math.add_102/Add",
          "PartitionedCall/model_27/tf.math.sigmoid_75/Sigmoid"
        ],
        "attr": { "T": { "type": "DT_FLOAT" } }
      },
      {
        "name": "PartitionedCall/model_27/tf.math.add_103/Add",
        "op": "_FusedConv2D",
        "input": [
          "PartitionedCall/model_27/tf.math.multiply_332/Mul",
          "27453",
          "27455"
        ],
        "device": "/device:CPU:0",
        "attr": {
          "num_host_args": { "i": "0" },
          "TArgs": { "list": { "type": ["DT_FLOAT"] } },
          "leakyrelu_alpha": { "f": 0.2 },
          "T": { "type": "DT_FLOAT" },
          "fused_ops": { "list": { "s": ["Qmlhc0FkZA=="] } },
          "dilations": { "list": { "i": ["1", "1", "1", "1"] } },
          "strides": { "list": { "i": ["1", "1", "1", "1"] } },
          "padding": { "s": "U0FNRQ==" },
          "num_args": { "i": "1" },
          "epsilon": { "f": 0.0 },
          "filter_format": { "s": "SFdJTw==" },
          "use_cudnn_on_gpu": { "b": true },
          "data_format": { "s": "TkhXQw==" },
          "explicit_paddings": { "list": {} }
        }
      },
      {
        "name": "PartitionedCall/model_27/tf.math.sigmoid_76/Sigmoid",
        "op": "Sigmoid",
        "input": ["PartitionedCall/model_27/tf.math.add_103/Add"],
        "attr": { "T": { "type": "DT_FLOAT" } }
      },
      {
        "name": "PartitionedCall/model_27/tf.math.multiply_336/Mul",
        "op": "Mul",
        "input": [
          "PartitionedCall/model_27/tf.math.add_103/Add",
          "PartitionedCall/model_27/tf.math.sigmoid_76/Sigmoid"
        ],
        "attr": { "T": { "type": "DT_FLOAT" } }
      },
      {
        "name": "PartitionedCall/model_27/tf.math.add_105/Add",
        "op": "AddV2",
        "input": [
          "PartitionedCall/model_27/tf.math.add_101/Add",
          "PartitionedCall/model_27/tf.math.multiply_336/Mul"
        ],
        "attr": { "T": { "type": "DT_FLOAT" } }
      },
      {
        "name": "PartitionedCall/model_27/tf.concat_24/concat",
        "op": "ConcatV2",
        "input": [
          "PartitionedCall/model_27/tf.strided_slice_24/StridedSlice",
          "PartitionedCall/model_27/tf.strided_slice_25/StridedSlice",
          "PartitionedCall/model_27/tf.math.add_101/Add",
          "PartitionedCall/model_27/tf.math.add_105/Add",
          "PartitionedCall/model_27/tf.concat_24/concat/axis"
        ],
        "attr": {
          "T": { "type": "DT_FLOAT" },
          "N": { "i": "4" },
          "Tidx": { "type": "DT_INT32" }
        }
      },
      {
        "name": "PartitionedCall/model_27/tf.math.add_106/Add",
        "op": "_FusedConv2D",
        "input": [
          "PartitionedCall/model_27/tf.concat_24/concat",
          "27461",
          "27463"
        ],
        "device": "/device:CPU:0",
        "attr": {
          "dilations": { "list": { "i": ["1", "1", "1", "1"] } },
          "padding": { "s": "U0FNRQ==" },
          "use_cudnn_on_gpu": { "b": true },
          "num_host_args": { "i": "0" },
          "T": { "type": "DT_FLOAT" },
          "strides": { "list": { "i": ["1", "1", "1", "1"] } },
          "TArgs": { "list": { "type": ["DT_FLOAT"] } },
          "leakyrelu_alpha": { "f": 0.2 },
          "fused_ops": { "list": { "s": ["Qmlhc0FkZA=="] } },
          "filter_format": { "s": "SFdJTw==" },
          "data_format": { "s": "TkhXQw==" },
          "num_args": { "i": "1" },
          "epsilon": { "f": 0.0 },
          "explicit_paddings": { "list": {} }
        }
      },
      {
        "name": "PartitionedCall/model_27/tf.math.sigmoid_77/Sigmoid",
        "op": "Sigmoid",
        "input": ["PartitionedCall/model_27/tf.math.add_106/Add"],
        "attr": { "T": { "type": "DT_FLOAT" } }
      },
      {
        "name": "PartitionedCall/model_27/tf.math.multiply_342/Mul",
        "op": "Mul",
        "input": [
          "PartitionedCall/model_27/tf.math.add_106/Add",
          "PartitionedCall/model_27/tf.math.sigmoid_77/Sigmoid"
        ],
        "attr": { "T": { "type": "DT_FLOAT" } }
      },
      {
        "name": "PartitionedCall/model_27/tf.compat.v1.pad_11/Pad",
        "op": "Pad",
        "input": ["PartitionedCall/model_27/tf.math.multiply_342/Mul", "27465"],
        "attr": {
          "Tpaddings": { "type": "DT_INT32" },
          "T": { "type": "DT_FLOAT" }
        }
      },
      {
        "name": "PartitionedCall/model_27/tf.math.add_107/Add",
        "op": "_FusedConv2D",
        "input": [
          "PartitionedCall/model_27/tf.compat.v1.pad_11/Pad",
          "27467",
          "27469"
        ],
        "device": "/device:CPU:0",
        "attr": {
          "explicit_paddings": { "list": {} },
          "num_args": { "i": "1" },
          "epsilon": { "f": 0.0 },
          "T": { "type": "DT_FLOAT" },
          "num_host_args": { "i": "0" },
          "fused_ops": { "list": { "s": ["Qmlhc0FkZA=="] } },
          "use_cudnn_on_gpu": { "b": true },
          "TArgs": { "list": { "type": ["DT_FLOAT"] } },
          "filter_format": { "s": "SFdJTw==" },
          "data_format": { "s": "TkhXQw==" },
          "strides": { "list": { "i": ["1", "2", "2", "1"] } },
          "padding": { "s": "VkFMSUQ=" },
          "leakyrelu_alpha": { "f": 0.2 },
          "dilations": { "list": { "i": ["1", "1", "1", "1"] } }
        }
      },
      {
        "name": "PartitionedCall/model_27/tf.math.sigmoid_78/Sigmoid",
        "op": "Sigmoid",
        "input": ["PartitionedCall/model_27/tf.math.add_107/Add"],
        "attr": { "T": { "type": "DT_FLOAT" } }
      },
      {
        "name": "PartitionedCall/model_27/tf.math.multiply_346/Mul",
        "op": "Mul",
        "input": [
          "PartitionedCall/model_27/tf.math.add_107/Add",
          "PartitionedCall/model_27/tf.math.sigmoid_78/Sigmoid"
        ],
        "attr": { "T": { "type": "DT_FLOAT" } }
      },
      {
        "name": "PartitionedCall/model_27/tf.math.add_108/Add",
        "op": "_FusedConv2D",
        "input": [
          "PartitionedCall/model_27/tf.math.multiply_346/Mul",
          "27471",
          "27473"
        ],
        "device": "/device:CPU:0",
        "attr": {
          "padding": { "s": "U0FNRQ==" },
          "filter_format": { "s": "SFdJTw==" },
          "TArgs": { "list": { "type": ["DT_FLOAT"] } },
          "num_host_args": { "i": "0" },
          "fused_ops": { "list": { "s": ["Qmlhc0FkZA=="] } },
          "strides": { "list": { "i": ["1", "1", "1", "1"] } },
          "use_cudnn_on_gpu": { "b": true },
          "data_format": { "s": "TkhXQw==" },
          "num_args": { "i": "1" },
          "epsilon": { "f": 0.0 },
          "explicit_paddings": { "list": {} },
          "dilations": { "list": { "i": ["1", "1", "1", "1"] } },
          "T": { "type": "DT_FLOAT" },
          "leakyrelu_alpha": { "f": 0.2 }
        }
      },
      {
        "name": "PartitionedCall/model_27/tf.math.sigmoid_79/Sigmoid",
        "op": "Sigmoid",
        "input": ["PartitionedCall/model_27/tf.math.add_108/Add"],
        "attr": { "T": { "type": "DT_FLOAT" } }
      },
      {
        "name": "PartitionedCall/model_27/tf.math.multiply_350/Mul",
        "op": "Mul",
        "input": [
          "PartitionedCall/model_27/tf.math.add_108/Add",
          "PartitionedCall/model_27/tf.math.sigmoid_79/Sigmoid"
        ],
        "attr": { "T": { "type": "DT_FLOAT" } }
      },
      {
        "name": "PartitionedCall/model_27/tf.strided_slice_26/StridedSlice",
        "op": "StridedSlice",
        "input": [
          "PartitionedCall/model_27/tf.math.multiply_350/Mul",
          "27487",
          "27489",
          "PartitionedCall/model_27/tf.strided_slice_26/ones_like"
        ],
        "attr": {
          "shrink_axis_mask": { "i": "0" },
          "ellipsis_mask": { "i": "0" },
          "begin_mask": { "i": "15" },
          "T": { "type": "DT_FLOAT" },
          "Index": { "type": "DT_INT64" },
          "new_axis_mask": { "i": "0" },
          "end_mask": { "i": "7" }
        }
      },
      {
        "name": "PartitionedCall/model_27/tf.strided_slice_27/StridedSlice",
        "op": "StridedSlice",
        "input": [
          "PartitionedCall/model_27/tf.math.multiply_350/Mul",
          "27475",
          "27477",
          "PartitionedCall/model_27/tf.strided_slice_27/ones_like"
        ],
        "attr": {
          "begin_mask": { "i": "7" },
          "Index": { "type": "DT_INT64" },
          "new_axis_mask": { "i": "0" },
          "end_mask": { "i": "7" },
          "shrink_axis_mask": { "i": "0" },
          "T": { "type": "DT_FLOAT" },
          "ellipsis_mask": { "i": "0" }
        }
      },
      {
        "name": "PartitionedCall/model_27/tf.math.add_109/Add",
        "op": "_FusedConv2D",
        "input": [
          "PartitionedCall/model_27/tf.strided_slice_27/StridedSlice",
          "27479",
          "27481"
        ],
        "device": "/device:CPU:0",
        "attr": {
          "num_host_args": { "i": "0" },
          "leakyrelu_alpha": { "f": 0.2 },
          "filter_format": { "s": "SFdJTw==" },
          "num_args": { "i": "1" },
          "dilations": { "list": { "i": ["1", "1", "1", "1"] } },
          "T": { "type": "DT_FLOAT" },
          "use_cudnn_on_gpu": { "b": true },
          "padding": { "s": "U0FNRQ==" },
          "explicit_paddings": { "list": {} },
          "epsilon": { "f": 0.0 },
          "fused_ops": { "list": { "s": ["Qmlhc0FkZA=="] } },
          "TArgs": { "list": { "type": ["DT_FLOAT"] } },
          "data_format": { "s": "TkhXQw==" },
          "strides": { "list": { "i": ["1", "1", "1", "1"] } }
        }
      },
      {
        "name": "PartitionedCall/model_27/tf.math.sigmoid_80/Sigmoid",
        "op": "Sigmoid",
        "input": ["PartitionedCall/model_27/tf.math.add_109/Add"],
        "attr": { "T": { "type": "DT_FLOAT" } }
      },
      {
        "name": "PartitionedCall/model_27/tf.math.multiply_354/Mul",
        "op": "Mul",
        "input": [
          "PartitionedCall/model_27/tf.math.add_109/Add",
          "PartitionedCall/model_27/tf.math.sigmoid_80/Sigmoid"
        ],
        "attr": { "T": { "type": "DT_FLOAT" } }
      },
      {
        "name": "PartitionedCall/model_27/tf.math.add_110/Add",
        "op": "_FusedConv2D",
        "input": [
          "PartitionedCall/model_27/tf.math.multiply_354/Mul",
          "27483",
          "27485"
        ],
        "device": "/device:CPU:0",
        "attr": {
          "dilations": { "list": { "i": ["1", "1", "1", "1"] } },
          "use_cudnn_on_gpu": { "b": true },
          "num_args": { "i": "1" },
          "padding": { "s": "U0FNRQ==" },
          "epsilon": { "f": 0.0 },
          "data_format": { "s": "TkhXQw==" },
          "strides": { "list": { "i": ["1", "1", "1", "1"] } },
          "num_host_args": { "i": "0" },
          "explicit_paddings": { "list": {} },
          "T": { "type": "DT_FLOAT" },
          "leakyrelu_alpha": { "f": 0.2 },
          "TArgs": { "list": { "type": ["DT_FLOAT"] } },
          "fused_ops": { "list": { "s": ["Qmlhc0FkZA=="] } },
          "filter_format": { "s": "SFdJTw==" }
        }
      },
      {
        "name": "PartitionedCall/model_27/tf.math.sigmoid_81/Sigmoid",
        "op": "Sigmoid",
        "input": ["PartitionedCall/model_27/tf.math.add_110/Add"],
        "attr": { "T": { "type": "DT_FLOAT" } }
      },
      {
        "name": "PartitionedCall/model_27/tf.math.multiply_358/Mul",
        "op": "Mul",
        "input": [
          "PartitionedCall/model_27/tf.math.add_110/Add",
          "PartitionedCall/model_27/tf.math.sigmoid_81/Sigmoid"
        ],
        "attr": { "T": { "type": "DT_FLOAT" } }
      },
      {
        "name": "PartitionedCall/model_27/tf.math.add_112/Add",
        "op": "AddV2",
        "input": [
          "PartitionedCall/model_27/tf.strided_slice_27/StridedSlice",
          "PartitionedCall/model_27/tf.math.multiply_358/Mul"
        ],
        "attr": { "T": { "type": "DT_FLOAT" } }
      },
      {
        "name": "PartitionedCall/model_27/tf.concat_25/concat",
        "op": "ConcatV2",
        "input": [
          "PartitionedCall/model_27/tf.strided_slice_26/StridedSlice",
          "PartitionedCall/model_27/tf.strided_slice_27/StridedSlice",
          "PartitionedCall/model_27/tf.math.add_112/Add",
          "PartitionedCall/model_27/tf.concat_25/concat/axis"
        ],
        "attr": {
          "N": { "i": "3" },
          "T": { "type": "DT_FLOAT" },
          "Tidx": { "type": "DT_INT32" }
        }
      },
      {
        "name": "PartitionedCall/model_27/tf.math.add_113/Add",
        "op": "_FusedConv2D",
        "input": [
          "PartitionedCall/model_27/tf.concat_25/concat",
          "27491",
          "27493"
        ],
        "device": "/device:CPU:0",
        "attr": {
          "explicit_paddings": { "list": {} },
          "epsilon": { "f": 0.0 },
          "leakyrelu_alpha": { "f": 0.2 },
          "TArgs": { "list": { "type": ["DT_FLOAT"] } },
          "data_format": { "s": "TkhXQw==" },
          "filter_format": { "s": "SFdJTw==" },
          "T": { "type": "DT_FLOAT" },
          "padding": { "s": "U0FNRQ==" },
          "num_args": { "i": "1" },
          "num_host_args": { "i": "0" },
          "dilations": { "list": { "i": ["1", "1", "1", "1"] } },
          "strides": { "list": { "i": ["1", "1", "1", "1"] } },
          "fused_ops": { "list": { "s": ["Qmlhc0FkZA=="] } },
          "use_cudnn_on_gpu": { "b": true }
        }
      },
      {
        "name": "PartitionedCall/model_27/tf.math.sigmoid_82/Sigmoid",
        "op": "Sigmoid",
        "input": ["PartitionedCall/model_27/tf.math.add_113/Add"],
        "attr": { "T": { "type": "DT_FLOAT" } }
      },
      {
        "name": "PartitionedCall/model_27/tf.math.multiply_364/Mul",
        "op": "Mul",
        "input": [
          "PartitionedCall/model_27/tf.math.add_113/Add",
          "PartitionedCall/model_27/tf.math.sigmoid_82/Sigmoid"
        ],
        "attr": { "T": { "type": "DT_FLOAT" } }
      },
      {
        "name": "PartitionedCall/model_27/tf.math.add_114/Add",
        "op": "_FusedConv2D",
        "input": [
          "PartitionedCall/model_27/tf.math.multiply_364/Mul",
          "27495",
          "27497"
        ],
        "device": "/device:CPU:0",
        "attr": {
          "filter_format": { "s": "SFdJTw==" },
          "TArgs": { "list": { "type": ["DT_FLOAT"] } },
          "use_cudnn_on_gpu": { "b": true },
          "padding": { "s": "U0FNRQ==" },
          "num_host_args": { "i": "0" },
          "explicit_paddings": { "list": {} },
          "strides": { "list": { "i": ["1", "1", "1", "1"] } },
          "T": { "type": "DT_FLOAT" },
          "data_format": { "s": "TkhXQw==" },
          "dilations": { "list": { "i": ["1", "1", "1", "1"] } },
          "leakyrelu_alpha": { "f": 0.2 },
          "num_args": { "i": "1" },
          "fused_ops": { "list": { "s": ["Qmlhc0FkZA=="] } },
          "epsilon": { "f": 0.0 }
        }
      },
      {
        "name": "PartitionedCall/model_27/tf.math.sigmoid_83/Sigmoid",
        "op": "Sigmoid",
        "input": ["PartitionedCall/model_27/tf.math.add_114/Add"],
        "attr": { "T": { "type": "DT_FLOAT" } }
      },
      {
        "name": "PartitionedCall/model_27/tf.math.multiply_368/Mul",
        "op": "Mul",
        "input": [
          "PartitionedCall/model_27/tf.math.add_114/Add",
          "PartitionedCall/model_27/tf.math.sigmoid_83/Sigmoid"
        ],
        "attr": { "T": { "type": "DT_FLOAT" } }
      },
      {
        "name": "PartitionedCall/model_27/tf.compat.v1.nn.pool_3/max_pool",
        "op": "MaxPool",
        "input": ["PartitionedCall/model_27/tf.math.multiply_368/Mul"],
        "attr": {
          "data_format": { "s": "TkhXQw==" },
          "strides": { "list": { "i": ["1", "1", "1", "1"] } },
          "explicit_paddings": { "list": {} },
          "padding": { "s": "U0FNRQ==" },
          "T": { "type": "DT_FLOAT" },
          "ksize": { "list": { "i": ["1", "5", "5", "1"] } }
        }
      },
      {
        "name": "PartitionedCall/model_27/tf.compat.v1.nn.pool_4/max_pool",
        "op": "MaxPool",
        "input": ["PartitionedCall/model_27/tf.compat.v1.nn.pool_3/max_pool"],
        "attr": {
          "padding": { "s": "U0FNRQ==" },
          "data_format": { "s": "TkhXQw==" },
          "strides": { "list": { "i": ["1", "1", "1", "1"] } },
          "explicit_paddings": { "list": {} },
          "T": { "type": "DT_FLOAT" },
          "ksize": { "list": { "i": ["1", "5", "5", "1"] } }
        }
      },
      {
        "name": "PartitionedCall/model_27/tf.compat.v1.nn.pool_5/max_pool",
        "op": "MaxPool",
        "input": ["PartitionedCall/model_27/tf.compat.v1.nn.pool_4/max_pool"],
        "attr": {
          "T": { "type": "DT_FLOAT" },
          "data_format": { "s": "TkhXQw==" },
          "ksize": { "list": { "i": ["1", "5", "5", "1"] } },
          "strides": { "list": { "i": ["1", "1", "1", "1"] } },
          "padding": { "s": "U0FNRQ==" },
          "explicit_paddings": { "list": {} }
        }
      },
      {
        "name": "PartitionedCall/model_27/tf.concat_26/concat",
        "op": "ConcatV2",
        "input": [
          "PartitionedCall/model_27/tf.math.multiply_368/Mul",
          "PartitionedCall/model_27/tf.compat.v1.nn.pool_3/max_pool",
          "PartitionedCall/model_27/tf.compat.v1.nn.pool_4/max_pool",
          "PartitionedCall/model_27/tf.compat.v1.nn.pool_5/max_pool",
          "PartitionedCall/model_27/tf.concat_26/concat/axis"
        ],
        "attr": {
          "Tidx": { "type": "DT_INT32" },
          "T": { "type": "DT_FLOAT" },
          "N": { "i": "4" }
        }
      },
      {
        "name": "PartitionedCall/model_27/tf.math.add_115/Add",
        "op": "_FusedConv2D",
        "input": [
          "PartitionedCall/model_27/tf.concat_26/concat",
          "27499",
          "27501"
        ],
        "device": "/device:CPU:0",
        "attr": {
          "fused_ops": { "list": { "s": ["Qmlhc0FkZA=="] } },
          "padding": { "s": "U0FNRQ==" },
          "strides": { "list": { "i": ["1", "1", "1", "1"] } },
          "use_cudnn_on_gpu": { "b": true },
          "data_format": { "s": "TkhXQw==" },
          "T": { "type": "DT_FLOAT" },
          "num_host_args": { "i": "0" },
          "filter_format": { "s": "SFdJTw==" },
          "epsilon": { "f": 0.0 },
          "explicit_paddings": { "list": {} },
          "TArgs": { "list": { "type": ["DT_FLOAT"] } },
          "num_args": { "i": "1" },
          "leakyrelu_alpha": { "f": 0.2 },
          "dilations": { "list": { "i": ["1", "1", "1", "1"] } }
        }
      },
      {
        "name": "PartitionedCall/model_27/tf.math.sigmoid_84/Sigmoid",
        "op": "Sigmoid",
        "input": ["PartitionedCall/model_27/tf.math.add_115/Add"],
        "attr": { "T": { "type": "DT_FLOAT" } }
      },
      {
        "name": "PartitionedCall/model_27/tf.math.multiply_372/Mul",
        "op": "Mul",
        "input": [
          "PartitionedCall/model_27/tf.math.add_115/Add",
          "PartitionedCall/model_27/tf.math.sigmoid_84/Sigmoid"
        ],
        "attr": { "T": { "type": "DT_FLOAT" } }
      },
      {
        "name": "PartitionedCall/model_27/tf.image.resize_2/resize/ResizeNearestNeighbor",
        "op": "ResizeNearestNeighbor",
        "input": [
          "PartitionedCall/model_27/tf.math.multiply_372/Mul",
          "PartitionedCall/model_27/tf.image.resize_2/resize/size"
        ],
        "attr": {
          "align_corners": { "b": false },
          "T": { "type": "DT_FLOAT" },
          "half_pixel_centers": { "b": true }
        }
      },
      {
        "name": "PartitionedCall/model_27/tf.concat_27/concat",
        "op": "ConcatV2",
        "input": [
          "PartitionedCall/model_27/tf.image.resize_2/resize/ResizeNearestNeighbor",
          "PartitionedCall/model_27/tf.math.multiply_342/Mul",
          "PartitionedCall/model_27/tf.concat_27/concat/axis"
        ],
        "attr": {
          "Tidx": { "type": "DT_INT32" },
          "T": { "type": "DT_FLOAT" },
          "N": { "i": "2" }
        }
      },
      {
        "name": "PartitionedCall/model_27/tf.math.add_116/Add",
        "op": "_FusedConv2D",
        "input": [
          "PartitionedCall/model_27/tf.concat_27/concat",
          "27503",
          "27505"
        ],
        "device": "/device:CPU:0",
        "attr": {
          "TArgs": { "list": { "type": ["DT_FLOAT"] } },
          "num_args": { "i": "1" },
          "filter_format": { "s": "SFdJTw==" },
          "epsilon": { "f": 0.0 },
          "dilations": { "list": { "i": ["1", "1", "1", "1"] } },
          "strides": { "list": { "i": ["1", "1", "1", "1"] } },
          "explicit_paddings": { "list": {} },
          "use_cudnn_on_gpu": { "b": true },
          "padding": { "s": "U0FNRQ==" },
          "data_format": { "s": "TkhXQw==" },
          "leakyrelu_alpha": { "f": 0.2 },
          "fused_ops": { "list": { "s": ["Qmlhc0FkZA=="] } },
          "T": { "type": "DT_FLOAT" },
          "num_host_args": { "i": "0" }
        }
      },
      {
        "name": "PartitionedCall/model_27/tf.math.sigmoid_85/Sigmoid",
        "op": "Sigmoid",
        "input": ["PartitionedCall/model_27/tf.math.add_116/Add"],
        "attr": { "T": { "type": "DT_FLOAT" } }
      },
      {
        "name": "PartitionedCall/model_27/tf.math.multiply_376/Mul",
        "op": "Mul",
        "input": [
          "PartitionedCall/model_27/tf.math.add_116/Add",
          "PartitionedCall/model_27/tf.math.sigmoid_85/Sigmoid"
        ],
        "attr": { "T": { "type": "DT_FLOAT" } }
      },
      {
        "name": "PartitionedCall/model_27/tf.strided_slice_28/StridedSlice",
        "op": "StridedSlice",
        "input": [
          "PartitionedCall/model_27/tf.math.multiply_376/Mul",
          "27519",
          "27521",
          "PartitionedCall/model_27/tf.strided_slice_28/ones_like"
        ],
        "attr": {
          "ellipsis_mask": { "i": "0" },
          "begin_mask": { "i": "15" },
          "new_axis_mask": { "i": "0" },
          "T": { "type": "DT_FLOAT" },
          "shrink_axis_mask": { "i": "0" },
          "end_mask": { "i": "7" },
          "Index": { "type": "DT_INT64" }
        }
      },
      {
        "name": "PartitionedCall/model_27/tf.strided_slice_29/StridedSlice",
        "op": "StridedSlice",
        "input": [
          "PartitionedCall/model_27/tf.math.multiply_376/Mul",
          "27507",
          "27509",
          "PartitionedCall/model_27/tf.strided_slice_29/ones_like"
        ],
        "attr": {
          "begin_mask": { "i": "7" },
          "ellipsis_mask": { "i": "0" },
          "new_axis_mask": { "i": "0" },
          "Index": { "type": "DT_INT64" },
          "shrink_axis_mask": { "i": "0" },
          "T": { "type": "DT_FLOAT" },
          "end_mask": { "i": "7" }
        }
      },
      {
        "name": "PartitionedCall/model_27/tf.math.add_117/Add",
        "op": "_FusedConv2D",
        "input": [
          "PartitionedCall/model_27/tf.strided_slice_29/StridedSlice",
          "27511",
          "27513"
        ],
        "device": "/device:CPU:0",
        "attr": {
          "num_args": { "i": "1" },
          "explicit_paddings": { "list": {} },
          "TArgs": { "list": { "type": ["DT_FLOAT"] } },
          "T": { "type": "DT_FLOAT" },
          "num_host_args": { "i": "0" },
          "leakyrelu_alpha": { "f": 0.2 },
          "epsilon": { "f": 0.0 },
          "dilations": { "list": { "i": ["1", "1", "1", "1"] } },
          "fused_ops": { "list": { "s": ["Qmlhc0FkZA=="] } },
          "padding": { "s": "U0FNRQ==" },
          "use_cudnn_on_gpu": { "b": true },
          "strides": { "list": { "i": ["1", "1", "1", "1"] } },
          "filter_format": { "s": "SFdJTw==" },
          "data_format": { "s": "TkhXQw==" }
        }
      },
      {
        "name": "PartitionedCall/model_27/tf.math.sigmoid_86/Sigmoid",
        "op": "Sigmoid",
        "input": ["PartitionedCall/model_27/tf.math.add_117/Add"],
        "attr": { "T": { "type": "DT_FLOAT" } }
      },
      {
        "name": "PartitionedCall/model_27/tf.math.multiply_380/Mul",
        "op": "Mul",
        "input": [
          "PartitionedCall/model_27/tf.math.add_117/Add",
          "PartitionedCall/model_27/tf.math.sigmoid_86/Sigmoid"
        ],
        "attr": { "T": { "type": "DT_FLOAT" } }
      },
      {
        "name": "PartitionedCall/model_27/tf.math.add_118/Add",
        "op": "_FusedConv2D",
        "input": [
          "PartitionedCall/model_27/tf.math.multiply_380/Mul",
          "27515",
          "27517"
        ],
        "device": "/device:CPU:0",
        "attr": {
          "TArgs": { "list": { "type": ["DT_FLOAT"] } },
          "dilations": { "list": { "i": ["1", "1", "1", "1"] } },
          "T": { "type": "DT_FLOAT" },
          "leakyrelu_alpha": { "f": 0.2 },
          "num_args": { "i": "1" },
          "explicit_paddings": { "list": {} },
          "num_host_args": { "i": "0" },
          "padding": { "s": "U0FNRQ==" },
          "epsilon": { "f": 0.0 },
          "data_format": { "s": "TkhXQw==" },
          "filter_format": { "s": "SFdJTw==" },
          "use_cudnn_on_gpu": { "b": true },
          "fused_ops": { "list": { "s": ["Qmlhc0FkZA=="] } },
          "strides": { "list": { "i": ["1", "1", "1", "1"] } }
        }
      },
      {
        "name": "PartitionedCall/model_27/tf.math.sigmoid_87/Sigmoid",
        "op": "Sigmoid",
        "input": ["PartitionedCall/model_27/tf.math.add_118/Add"],
        "attr": { "T": { "type": "DT_FLOAT" } }
      },
      {
        "name": "PartitionedCall/model_27/tf.math.multiply_384/Mul",
        "op": "Mul",
        "input": [
          "PartitionedCall/model_27/tf.math.add_118/Add",
          "PartitionedCall/model_27/tf.math.sigmoid_87/Sigmoid"
        ],
        "attr": { "T": { "type": "DT_FLOAT" } }
      },
      {
        "name": "PartitionedCall/model_27/tf.concat_28/concat",
        "op": "ConcatV2",
        "input": [
          "PartitionedCall/model_27/tf.strided_slice_28/StridedSlice",
          "PartitionedCall/model_27/tf.strided_slice_29/StridedSlice",
          "PartitionedCall/model_27/tf.math.multiply_384/Mul",
          "PartitionedCall/model_27/tf.concat_28/concat/axis"
        ],
        "attr": {
          "T": { "type": "DT_FLOAT" },
          "Tidx": { "type": "DT_INT32" },
          "N": { "i": "3" }
        }
      },
      {
        "name": "PartitionedCall/model_27/tf.math.add_119/Add",
        "op": "_FusedConv2D",
        "input": [
          "PartitionedCall/model_27/tf.concat_28/concat",
          "27523",
          "27525"
        ],
        "device": "/device:CPU:0",
        "attr": {
          "filter_format": { "s": "SFdJTw==" },
          "dilations": { "list": { "i": ["1", "1", "1", "1"] } },
          "epsilon": { "f": 0.0 },
          "leakyrelu_alpha": { "f": 0.2 },
          "use_cudnn_on_gpu": { "b": true },
          "fused_ops": { "list": { "s": ["Qmlhc0FkZA=="] } },
          "data_format": { "s": "TkhXQw==" },
          "padding": { "s": "U0FNRQ==" },
          "strides": { "list": { "i": ["1", "1", "1", "1"] } },
          "T": { "type": "DT_FLOAT" },
          "explicit_paddings": { "list": {} },
          "num_args": { "i": "1" },
          "num_host_args": { "i": "0" },
          "TArgs": { "list": { "type": ["DT_FLOAT"] } }
        }
      },
      {
        "name": "PartitionedCall/model_27/tf.math.sigmoid_88/Sigmoid",
        "op": "Sigmoid",
        "input": ["PartitionedCall/model_27/tf.math.add_119/Add"],
        "attr": { "T": { "type": "DT_FLOAT" } }
      },
      {
        "name": "PartitionedCall/model_27/tf.math.multiply_388/Mul",
        "op": "Mul",
        "input": [
          "PartitionedCall/model_27/tf.math.add_119/Add",
          "PartitionedCall/model_27/tf.math.sigmoid_88/Sigmoid"
        ],
        "attr": { "T": { "type": "DT_FLOAT" } }
      },
      {
        "name": "PartitionedCall/model_27/tf.image.resize_3/resize/ResizeNearestNeighbor",
        "op": "ResizeNearestNeighbor",
        "input": [
          "PartitionedCall/model_27/tf.math.multiply_388/Mul",
          "PartitionedCall/model_27/tf.image.resize_3/resize/size"
        ],
        "attr": {
          "T": { "type": "DT_FLOAT" },
          "half_pixel_centers": { "b": true },
          "align_corners": { "b": false }
        }
      },
      {
        "name": "PartitionedCall/model_27/tf.concat_29/concat",
        "op": "ConcatV2",
        "input": [
          "PartitionedCall/model_27/tf.image.resize_3/resize/ResizeNearestNeighbor",
          "PartitionedCall/model_27/tf.math.multiply_310/Mul",
          "PartitionedCall/model_27/tf.concat_29/concat/axis"
        ],
        "attr": {
          "T": { "type": "DT_FLOAT" },
          "Tidx": { "type": "DT_INT32" },
          "N": { "i": "2" }
        }
      },
      {
        "name": "PartitionedCall/model_27/tf.math.add_120/Add",
        "op": "_FusedConv2D",
        "input": [
          "PartitionedCall/model_27/tf.concat_29/concat",
          "27527",
          "27529"
        ],
        "device": "/device:CPU:0",
        "attr": {
          "dilations": { "list": { "i": ["1", "1", "1", "1"] } },
          "use_cudnn_on_gpu": { "b": true },
          "T": { "type": "DT_FLOAT" },
          "padding": { "s": "U0FNRQ==" },
          "strides": { "list": { "i": ["1", "1", "1", "1"] } },
          "data_format": { "s": "TkhXQw==" },
          "num_args": { "i": "1" },
          "epsilon": { "f": 0.0 },
          "filter_format": { "s": "SFdJTw==" },
          "leakyrelu_alpha": { "f": 0.2 },
          "num_host_args": { "i": "0" },
          "fused_ops": { "list": { "s": ["Qmlhc0FkZA=="] } },
          "explicit_paddings": { "list": {} },
          "TArgs": { "list": { "type": ["DT_FLOAT"] } }
        }
      },
      {
        "name": "PartitionedCall/model_27/tf.math.sigmoid_89/Sigmoid",
        "op": "Sigmoid",
        "input": ["PartitionedCall/model_27/tf.math.add_120/Add"],
        "attr": { "T": { "type": "DT_FLOAT" } }
      },
      {
        "name": "PartitionedCall/model_27/tf.math.multiply_392/Mul",
        "op": "Mul",
        "input": [
          "PartitionedCall/model_27/tf.math.add_120/Add",
          "PartitionedCall/model_27/tf.math.sigmoid_89/Sigmoid"
        ],
        "attr": { "T": { "type": "DT_FLOAT" } }
      },
      {
        "name": "PartitionedCall/model_27/tf.strided_slice_30/StridedSlice",
        "op": "StridedSlice",
        "input": [
          "PartitionedCall/model_27/tf.math.multiply_392/Mul",
          "27543",
          "27545",
          "PartitionedCall/model_27/tf.strided_slice_30/ones_like"
        ],
        "attr": {
          "T": { "type": "DT_FLOAT" },
          "new_axis_mask": { "i": "0" },
          "shrink_axis_mask": { "i": "0" },
          "end_mask": { "i": "7" },
          "ellipsis_mask": { "i": "0" },
          "begin_mask": { "i": "15" },
          "Index": { "type": "DT_INT64" }
        }
      },
      {
        "name": "PartitionedCall/model_27/tf.strided_slice_31/StridedSlice",
        "op": "StridedSlice",
        "input": [
          "PartitionedCall/model_27/tf.math.multiply_392/Mul",
          "27531",
          "27533",
          "PartitionedCall/model_27/tf.strided_slice_31/ones_like"
        ],
        "attr": {
          "ellipsis_mask": { "i": "0" },
          "end_mask": { "i": "7" },
          "begin_mask": { "i": "7" },
          "shrink_axis_mask": { "i": "0" },
          "Index": { "type": "DT_INT64" },
          "new_axis_mask": { "i": "0" },
          "T": { "type": "DT_FLOAT" }
        }
      },
      {
        "name": "PartitionedCall/model_27/tf.math.add_121/Add",
        "op": "_FusedConv2D",
        "input": [
          "PartitionedCall/model_27/tf.strided_slice_31/StridedSlice",
          "27535",
          "27537"
        ],
        "device": "/device:CPU:0",
        "attr": {
          "filter_format": { "s": "SFdJTw==" },
          "num_args": { "i": "1" },
          "explicit_paddings": { "list": {} },
          "leakyrelu_alpha": { "f": 0.2 },
          "fused_ops": { "list": { "s": ["Qmlhc0FkZA=="] } },
          "TArgs": { "list": { "type": ["DT_FLOAT"] } },
          "num_host_args": { "i": "0" },
          "T": { "type": "DT_FLOAT" },
          "dilations": { "list": { "i": ["1", "1", "1", "1"] } },
          "use_cudnn_on_gpu": { "b": true },
          "strides": { "list": { "i": ["1", "1", "1", "1"] } },
          "epsilon": { "f": 0.0 },
          "padding": { "s": "U0FNRQ==" },
          "data_format": { "s": "TkhXQw==" }
        }
      },
      {
        "name": "PartitionedCall/model_27/tf.math.sigmoid_90/Sigmoid",
        "op": "Sigmoid",
        "input": ["PartitionedCall/model_27/tf.math.add_121/Add"],
        "attr": { "T": { "type": "DT_FLOAT" } }
      },
      {
        "name": "PartitionedCall/model_27/tf.math.multiply_396/Mul",
        "op": "Mul",
        "input": [
          "PartitionedCall/model_27/tf.math.add_121/Add",
          "PartitionedCall/model_27/tf.math.sigmoid_90/Sigmoid"
        ],
        "attr": { "T": { "type": "DT_FLOAT" } }
      },
      {
        "name": "PartitionedCall/model_27/tf.math.add_122/Add",
        "op": "_FusedConv2D",
        "input": [
          "PartitionedCall/model_27/tf.math.multiply_396/Mul",
          "27539",
          "27541"
        ],
        "device": "/device:CPU:0",
        "attr": {
…
        "attr": { "T": { "type": "DT_FLOAT" } }
      },
      {
        "name": "PartitionedCall/model_27/tf.math.multiply_460/Mul",
        "op": "Mul",
        "input": [
          "PartitionedCall/model_27/tf.math.add_139/Add",
          "PartitionedCall/model_27/tf.math.sigmoid_106/Sigmoid"
        ],
        "attr": { "T": { "type": "DT_FLOAT" } }
      },
      {
        "name": "PartitionedCall/model_27/tf.math.add_140/Add",
        "op": "_FusedConv2D",
        "input": [
          "PartitionedCall/model_27/tf.concat_34/concat",
          "27587",
          "27589"
        ],
        "device": "/device:CPU:0",
        "attr": {
          "fused_ops": { "list": { "s": ["Qmlhc0FkZA=="] } },
          "num_host_args": { "i": "0" },
          "num_args": { "i": "1" },
          "padding": { "s": "U0FNRQ==" },
          "use_cudnn_on_gpu": { "b": true },
          "explicit_paddings": { "list": {} },
          "filter_format": { "s": "SFdJTw==" },
          "data_format": { "s": "TkhXQw==" },
          "T": { "type": "DT_FLOAT" },
          "TArgs": { "list": { "type": ["DT_FLOAT"] } },
          "strides": { "list": { "i": ["1", "1", "1", "1"] } },
          "epsilon": { "f": 0.0 },
          "leakyrelu_alpha": { "f": 0.2 },
          "dilations": { "list": { "i": ["1", "1", "1", "1"] } }
        }
      },
      {
        "name": "PartitionedCall/model_27/tf.math.add_141/Add",
        "op": "_FusedConv2D",
        "input": [
          "PartitionedCall/model_27/tf.math.multiply_456/Mul",
          "27665",
          "27675"
        ],
        "device": "/device:CPU:0",
        "attr": {
          "T": { "type": "DT_FLOAT" },
          "filter_format": { "s": "SFdJTw==" },
          "num_host_args": { "i": "0" },
          "TArgs": { "list": { "type": ["DT_FLOAT"] } },
          "strides": { "list": { "i": ["1", "1", "1", "1"] } },
          "num_args": { "i": "1" },
          "explicit_paddings": { "list": {} },
          "leakyrelu_alpha": { "f": 0.2 },
          "use_cudnn_on_gpu": { "b": true },
          "data_format": { "s": "TkhXQw==" },
          "epsilon": { "f": 0.0 },
          "padding": { "s": "U0FNRQ==" },
          "fused_ops": { "list": { "s": ["Qmlhc0FkZA=="] } },
          "dilations": { "list": { "i": ["1", "1", "1", "1"] } }
        }
      },
      {
        "name": "PartitionedCall/model_27/tf.math.add_142/Add",
        "op": "_FusedConv2D",
        "input": [
          "PartitionedCall/model_27/tf.math.multiply_460/Mul",
          "27663",
          "27677"
        ],
        "device": "/device:CPU:0",
        "attr": {
          "TArgs": { "list": { "type": ["DT_FLOAT"] } },
          "leakyrelu_alpha": { "f": 0.2 },
          "num_host_args": { "i": "0" },
          "fused_ops": { "list": { "s": ["Qmlhc0FkZA=="] } },
          "epsilon": { "f": 0.0 },
          "strides": { "list": { "i": ["1", "1", "1", "1"] } },
          "filter_format": { "s": "SFdJTw==" },
          "explicit_paddings": { "list": {} },
          "dilations": { "list": { "i": ["1", "1", "1", "1"] } },
          "num_args": { "i": "1" },
          "data_format": { "s": "TkhXQw==" },
          "use_cudnn_on_gpu": { "b": true },
          "padding": { "s": "U0FNRQ==" },
          "T": { "type": "DT_FLOAT" }
        }
      },
      {
        "name": "PartitionedCall/model_27/tf.math.sigmoid_107/Sigmoid",
        "op": "Sigmoid",
        "input": ["PartitionedCall/model_27/tf.math.add_140/Add"],
        "attr": { "T": { "type": "DT_FLOAT" } }
      },
      {
        "name": "PartitionedCall/model_27/tf.concat_35/concat",
        "op": "ConcatV2",
        "input": [
          "PartitionedCall/model_27/tf.math.add_141/Add",
          "PartitionedCall/model_27/tf.math.add_142/Add",
          "PartitionedCall/model_27/tf.concat_35/concat/axis"
        ],
        "attr": {
          "T": { "type": "DT_FLOAT" },
          "N": { "i": "2" },
          "Tidx": { "type": "DT_INT32" }
        }
      },
      {
        "name": "PartitionedCall/model_27/tf.math.multiply_464/Mul",
        "op": "Mul",
        "input": [
          "PartitionedCall/model_27/tf.math.add_140/Add",
          "PartitionedCall/model_27/tf.math.sigmoid_107/Sigmoid"
        ],
        "attr": { "T": { "type": "DT_FLOAT" } }
      },
      {
        "name": "PartitionedCall/model_27/tf.compat.v1.transpose_35/transpose",
        "op": "Transpose",
        "input": [
          "PartitionedCall/model_27/tf.concat_35/concat",
          "PartitionedCall/model_27/tf.compat.v1.transpose_35/transpose/perm"
        ],
        "attr": { "Tperm": { "type": "DT_INT32" }, "T": { "type": "DT_FLOAT" } }
      },
      {
        "name": "PartitionedCall/model_27/tf.strided_slice_34/StridedSlice",
        "op": "StridedSlice",
        "input": [
          "PartitionedCall/model_27/tf.math.multiply_464/Mul",
          "27603",
          "27605",
          "PartitionedCall/model_27/tf.strided_slice_34/ones_like"
        ],
        "attr": {
          "end_mask": { "i": "7" },
          "begin_mask": { "i": "15" },
          "T": { "type": "DT_FLOAT" },
          "ellipsis_mask": { "i": "0" },
          "new_axis_mask": { "i": "0" },
          "shrink_axis_mask": { "i": "0" },
          "Index": { "type": "DT_INT64" }
        }
      },
      {
        "name": "PartitionedCall/model_27/tf.strided_slice_35/StridedSlice",
        "op": "StridedSlice",
        "input": [
          "PartitionedCall/model_27/tf.math.multiply_464/Mul",
          "27591",
          "27593",
          "PartitionedCall/model_27/tf.strided_slice_35/ones_like"
        ],
        "attr": {
          "shrink_axis_mask": { "i": "0" },
          "ellipsis_mask": { "i": "0" },
          "Index": { "type": "DT_INT64" },
          "begin_mask": { "i": "7" },
          "end_mask": { "i": "7" },
          "T": { "type": "DT_FLOAT" },
          "new_axis_mask": { "i": "0" }
        }
      },
      {
        "name": "PartitionedCall/model_27/tf.reshape_20/Reshape",
        "op": "Reshape",
        "input": [
          "PartitionedCall/model_27/tf.compat.v1.transpose_35/transpose",
          "PartitionedCall/model_27/tf.reshape_20/Reshape/shape"
        ],
        "attr": {
          "Tshape": { "type": "DT_INT32" },
          "T": { "type": "DT_FLOAT" }
        }
      },
      {
        "name": "PartitionedCall/model_27/tf.math.add_143/Add",
        "op": "_FusedConv2D",
        "input": [
          "PartitionedCall/model_27/tf.strided_slice_35/StridedSlice",
          "27595",
          "27597"
        ],
        "device": "/device:CPU:0",
        "attr": {
          "leakyrelu_alpha": { "f": 0.2 },
          "filter_format": { "s": "SFdJTw==" },
          "explicit_paddings": { "list": {} },
          "strides": { "list": { "i": ["1", "1", "1", "1"] } },
          "data_format": { "s": "TkhXQw==" },
          "dilations": { "list": { "i": ["1", "1", "1", "1"] } },
          "num_args": { "i": "1" },
          "epsilon": { "f": 0.0 },
          "T": { "type": "DT_FLOAT" },
          "fused_ops": { "list": { "s": ["Qmlhc0FkZA=="] } },
          "TArgs": { "list": { "type": ["DT_FLOAT"] } },
          "use_cudnn_on_gpu": { "b": true },
          "padding": { "s": "U0FNRQ==" },
          "num_host_args": { "i": "0" }
        }
      },
      {
        "name": "PartitionedCall/model_27/tf.math.sigmoid_108/Sigmoid",
        "op": "Sigmoid",
        "input": ["PartitionedCall/model_27/tf.math.add_143/Add"],
        "attr": { "T": { "type": "DT_FLOAT" } }
      },
      {
        "name": "PartitionedCall/model_27/tf.math.multiply_468/Mul",
        "op": "Mul",
        "input": [
          "PartitionedCall/model_27/tf.math.add_143/Add",
          "PartitionedCall/model_27/tf.math.sigmoid_108/Sigmoid"
        ],
        "attr": { "T": { "type": "DT_FLOAT" } }
      },
      {
        "name": "PartitionedCall/model_27/tf.math.add_144/Add",
        "op": "_FusedConv2D",
        "input": [
          "PartitionedCall/model_27/tf.math.multiply_468/Mul",
          "27599",
          "27601"
        ],
        "device": "/device:CPU:0",
        "attr": {
          "data_format": { "s": "TkhXQw==" },
          "explicit_paddings": { "list": {} },
          "filter_format": { "s": "SFdJTw==" },
          "use_cudnn_on_gpu": { "b": true },
          "padding": { "s": "U0FNRQ==" },
          "TArgs": { "list": { "type": ["DT_FLOAT"] } },
          "T": { "type": "DT_FLOAT" },
          "num_host_args": { "i": "0" },
          "epsilon": { "f": 0.0 },
          "leakyrelu_alpha": { "f": 0.2 },
          "fused_ops": { "list": { "s": ["Qmlhc0FkZA=="] } },
          "num_args": { "i": "1" },
          "strides": { "list": { "i": ["1", "1", "1", "1"] } },
          "dilations": { "list": { "i": ["1", "1", "1", "1"] } }
        }
      },
      {
        "name": "PartitionedCall/model_27/tf.math.sigmoid_109/Sigmoid",
        "op": "Sigmoid",
        "input": ["PartitionedCall/model_27/tf.math.add_144/Add"],
        "attr": { "T": { "type": "DT_FLOAT" } }
      },
      {
        "name": "PartitionedCall/model_27/tf.math.multiply_472/Mul",
        "op": "Mul",
        "input": [
          "PartitionedCall/model_27/tf.math.add_144/Add",
          "PartitionedCall/model_27/tf.math.sigmoid_109/Sigmoid"
        ],
        "attr": { "T": { "type": "DT_FLOAT" } }
      },
      {
        "name": "PartitionedCall/model_27/tf.concat_36/concat",
        "op": "ConcatV2",
        "input": [
          "PartitionedCall/model_27/tf.strided_slice_34/StridedSlice",
          "PartitionedCall/model_27/tf.strided_slice_35/StridedSlice",
          "PartitionedCall/model_27/tf.math.multiply_472/Mul",
          "PartitionedCall/model_27/tf.concat_36/concat/axis"
        ],
        "attr": {
          "N": { "i": "3" },
          "T": { "type": "DT_FLOAT" },
          "Tidx": { "type": "DT_INT32" }
        }
      },
      {
        "name": "PartitionedCall/model_27/tf.math.add_145/Add",
        "op": "_FusedConv2D",
        "input": [
          "PartitionedCall/model_27/tf.concat_36/concat",
          "27607",
          "27609"
        ],
        "device": "/device:CPU:0",
        "attr": {
          "strides": { "list": { "i": ["1", "1", "1", "1"] } },
          "explicit_paddings": { "list": {} },
          "num_args": { "i": "1" },
          "filter_format": { "s": "SFdJTw==" },
          "use_cudnn_on_gpu": { "b": true },
          "fused_ops": { "list": { "s": ["Qmlhc0FkZA=="] } },
          "num_host_args": { "i": "0" },
          "data_format": { "s": "TkhXQw==" },
          "leakyrelu_alpha": { "f": 0.2 },
          "padding": { "s": "U0FNRQ==" },
          "T": { "type": "DT_FLOAT" },
          "dilations": { "list": { "i": ["1", "1", "1", "1"] } },
          "epsilon": { "f": 0.0 },
          "TArgs": { "list": { "type": ["DT_FLOAT"] } }
        }
      },
      {
        "name": "PartitionedCall/model_27/tf.math.sigmoid_110/Sigmoid",
        "op": "Sigmoid",
        "input": ["PartitionedCall/model_27/tf.math.add_145/Add"],
        "attr": { "T": { "type": "DT_FLOAT" } }
      },
      {
        "name": "PartitionedCall/model_27/tf.math.multiply_476/Mul",
        "op": "Mul",
        "input": [
          "PartitionedCall/model_27/tf.math.add_145/Add",
          "PartitionedCall/model_27/tf.math.sigmoid_110/Sigmoid"
        ],
        "attr": { "T": { "type": "DT_FLOAT" } }
      },
      {
        "name": "PartitionedCall/model_27/tf.math.add_146/Add",
        "op": "_FusedConv2D",
        "input": [
          "PartitionedCall/model_27/tf.math.multiply_476/Mul",
          "27613",
          "27625"
        ],
        "device": "/device:CPU:0",
        "attr": {
          "data_format": { "s": "TkhXQw==" },
          "dilations": { "list": { "i": ["1", "1", "1", "1"] } },
          "num_args": { "i": "1" },
          "num_host_args": { "i": "0" },
          "filter_format": { "s": "SFdJTw==" },
          "leakyrelu_alpha": { "f": 0.2 },
          "fused_ops": { "list": { "s": ["Qmlhc0FkZA=="] } },
          "TArgs": { "list": { "type": ["DT_FLOAT"] } },
          "strides": { "list": { "i": ["1", "1", "1", "1"] } },
          "padding": { "s": "U0FNRQ==" },
          "explicit_paddings": { "list": {} },
          "epsilon": { "f": 0.0 },
          "T": { "type": "DT_FLOAT" },
          "use_cudnn_on_gpu": { "b": true }
        }
      },
      {
        "name": "PartitionedCall/model_27/tf.math.add_147/Add",
        "op": "_FusedConv2D",
        "input": [
          "PartitionedCall/model_27/tf.math.multiply_476/Mul",
          "27611",
          "27623"
        ],
        "device": "/device:CPU:0",
        "attr": {
          "dilations": { "list": { "i": ["1", "1", "1", "1"] } },
          "filter_format": { "s": "SFdJTw==" },
          "padding": { "s": "U0FNRQ==" },
          "explicit_paddings": { "list": {} },
          "data_format": { "s": "TkhXQw==" },
          "fused_ops": { "list": { "s": ["Qmlhc0FkZA=="] } },
          "T": { "type": "DT_FLOAT" },
          "use_cudnn_on_gpu": { "b": true },
          "TArgs": { "list": { "type": ["DT_FLOAT"] } },
          "num_args": { "i": "1" },
          "epsilon": { "f": 0.0 },
          "leakyrelu_alpha": { "f": 0.2 },
          "num_host_args": { "i": "0" },
          "strides": { "list": { "i": ["1", "1", "1", "1"] } }
        }
      },
      {
        "name": "PartitionedCall/model_27/tf.math.sigmoid_111/Sigmoid",
        "op": "Sigmoid",
        "input": ["PartitionedCall/model_27/tf.math.add_146/Add"],
        "attr": { "T": { "type": "DT_FLOAT" } }
      },
      {
        "name": "PartitionedCall/model_27/tf.math.sigmoid_112/Sigmoid",
        "op": "Sigmoid",
        "input": ["PartitionedCall/model_27/tf.math.add_147/Add"],
        "attr": { "T": { "type": "DT_FLOAT" } }
      },
      {
        "name": "PartitionedCall/model_27/tf.math.multiply_480/Mul",
        "op": "Mul",
        "input": [
          "PartitionedCall/model_27/tf.math.add_146/Add",
          "PartitionedCall/model_27/tf.math.sigmoid_111/Sigmoid"
        ],
        "attr": { "T": { "type": "DT_FLOAT" } }
      },
      {
        "name": "PartitionedCall/model_27/tf.math.multiply_484/Mul",
        "op": "Mul",
        "input": [
          "PartitionedCall/model_27/tf.math.add_147/Add",
          "PartitionedCall/model_27/tf.math.sigmoid_112/Sigmoid"
        ],
        "attr": { "T": { "type": "DT_FLOAT" } }
      },
      {
        "name": "PartitionedCall/model_27/tf.math.add_148/Add",
        "op": "_FusedConv2D",
        "input": [
          "PartitionedCall/model_27/tf.math.multiply_480/Mul",
          "27637",
          "27649"
        ],
        "device": "/device:CPU:0",
        "attr": {
          "num_args": { "i": "1" },
          "explicit_paddings": { "list": {} },
          "fused_ops": { "list": { "s": ["Qmlhc0FkZA=="] } },
          "use_cudnn_on_gpu": { "b": true },
          "strides": { "list": { "i": ["1", "1", "1", "1"] } },
          "num_host_args": { "i": "0" },
          "data_format": { "s": "TkhXQw==" },
          "T": { "type": "DT_FLOAT" },
          "TArgs": { "list": { "type": ["DT_FLOAT"] } },
          "leakyrelu_alpha": { "f": 0.2 },
          "padding": { "s": "U0FNRQ==" },
          "epsilon": { "f": 0.0 },
          "dilations": { "list": { "i": ["1", "1", "1", "1"] } },
          "filter_format": { "s": "SFdJTw==" }
        }
      },
      {
        "name": "PartitionedCall/model_27/tf.math.add_149/Add",
        "op": "_FusedConv2D",
        "input": [
          "PartitionedCall/model_27/tf.math.multiply_484/Mul",
          "27635",
          "27647"
        ],
        "device": "/device:CPU:0",
        "attr": {
          "num_host_args": { "i": "0" },
          "leakyrelu_alpha": { "f": 0.2 },
          "use_cudnn_on_gpu": { "b": true },
          "filter_format": { "s": "SFdJTw==" },
          "epsilon": { "f": 0.0 },
          "TArgs": { "list": { "type": ["DT_FLOAT"] } },
          "strides": { "list": { "i": ["1", "1", "1", "1"] } },
          "num_args": { "i": "1" },
          "explicit_paddings": { "list": {} },
          "data_format": { "s": "TkhXQw==" },
          "padding": { "s": "U0FNRQ==" },
          "T": { "type": "DT_FLOAT" },
          "dilations": { "list": { "i": ["1", "1", "1", "1"] } },
          "fused_ops": { "list": { "s": ["Qmlhc0FkZA=="] } }
        }
      },
      {
        "name": "PartitionedCall/model_27/tf.math.sigmoid_113/Sigmoid",
        "op": "Sigmoid",
        "input": ["PartitionedCall/model_27/tf.math.add_148/Add"],
        "attr": { "T": { "type": "DT_FLOAT" } }
      },
      {
        "name": "PartitionedCall/model_27/tf.math.sigmoid_114/Sigmoid",
        "op": "Sigmoid",
        "input": ["PartitionedCall/model_27/tf.math.add_149/Add"],
        "attr": { "T": { "type": "DT_FLOAT" } }
      },
      {
        "name": "PartitionedCall/model_27/tf.math.multiply_488/Mul",
        "op": "Mul",
        "input": [
          "PartitionedCall/model_27/tf.math.add_148/Add",
          "PartitionedCall/model_27/tf.math.sigmoid_113/Sigmoid"
        ],
        "attr": { "T": { "type": "DT_FLOAT" } }
      },
      {
        "name": "PartitionedCall/model_27/tf.math.multiply_492/Mul",
        "op": "Mul",
        "input": [
          "PartitionedCall/model_27/tf.math.add_149/Add",
          "PartitionedCall/model_27/tf.math.sigmoid_114/Sigmoid"
        ],
        "attr": { "T": { "type": "DT_FLOAT" } }
      },
      {
        "name": "PartitionedCall/model_27/tf.math.add_150/Add",
        "op": "_FusedConv2D",
        "input": [
          "PartitionedCall/model_27/tf.math.multiply_488/Mul",
          "27661",
          "27671"
        ],
        "device": "/device:CPU:0",
        "attr": {
          "epsilon": { "f": 0.0 },
          "filter_format": { "s": "SFdJTw==" },
          "fused_ops": { "list": { "s": ["Qmlhc0FkZA=="] } },
          "num_host_args": { "i": "0" },
          "TArgs": { "list": { "type": ["DT_FLOAT"] } },
          "num_args": { "i": "1" },
          "T": { "type": "DT_FLOAT" },
          "use_cudnn_on_gpu": { "b": true },
          "leakyrelu_alpha": { "f": 0.2 },
          "strides": { "list": { "i": ["1", "1", "1", "1"] } },
          "explicit_paddings": { "list": {} },
          "data_format": { "s": "TkhXQw==" },
          "dilations": { "list": { "i": ["1", "1", "1", "1"] } },
          "padding": { "s": "U0FNRQ==" }
        }
      },
      {
        "name": "PartitionedCall/model_27/tf.math.add_151/Add",
        "op": "_FusedConv2D",
        "input": [
          "PartitionedCall/model_27/tf.math.multiply_492/Mul",
          "27659",
          "27673"
        ],
        "device": "/device:CPU:0",
        "attr": {
          "leakyrelu_alpha": { "f": 0.2 },
          "num_args": { "i": "1" },
          "dilations": { "list": { "i": ["1", "1", "1", "1"] } },
          "strides": { "list": { "i": ["1", "1", "1", "1"] } },
          "data_format": { "s": "TkhXQw==" },
          "padding": { "s": "U0FNRQ==" },
          "explicit_paddings": { "list": {} },
          "T": { "type": "DT_FLOAT" },
          "use_cudnn_on_gpu": { "b": true },
          "num_host_args": { "i": "0" },
          "fused_ops": { "list": { "s": ["Qmlhc0FkZA=="] } },
          "TArgs": { "list": { "type": ["DT_FLOAT"] } },
          "filter_format": { "s": "SFdJTw==" },
          "epsilon": { "f": 0.0 }
        }
      },
      {
        "name": "PartitionedCall/model_27/tf.concat_37/concat",
        "op": "ConcatV2",
        "input": [
          "PartitionedCall/model_27/tf.math.add_150/Add",
          "PartitionedCall/model_27/tf.math.add_151/Add",
          "PartitionedCall/model_27/tf.concat_37/concat/axis"
        ],
        "attr": {
          "Tidx": { "type": "DT_INT32" },
          "T": { "type": "DT_FLOAT" },
          "N": { "i": "2" }
        }
      },
      {
        "name": "PartitionedCall/model_27/tf.compat.v1.transpose_40/transpose",
        "op": "Transpose",
        "input": [
          "PartitionedCall/model_27/tf.concat_37/concat",
          "PartitionedCall/model_27/tf.compat.v1.transpose_40/transpose/perm"
        ],
        "attr": { "T": { "type": "DT_FLOAT" }, "Tperm": { "type": "DT_INT32" } }
      },
      {
        "name": "PartitionedCall/model_27/tf.reshape_23/Reshape",
        "op": "Reshape",
        "input": [
          "PartitionedCall/model_27/tf.compat.v1.transpose_40/transpose",
          "PartitionedCall/model_27/tf.reshape_23/Reshape/shape"
        ],
        "attr": {
          "T": { "type": "DT_FLOAT" },
          "Tshape": { "type": "DT_INT32" }
        }
      },
      {
        "name": "PartitionedCall/model_27/tf.concat_38/concat",
        "op": "ConcatV2",
        "input": [
          "PartitionedCall/model_27/tf.reshape_17/Reshape",
          "PartitionedCall/model_27/tf.reshape_20/Reshape",
          "PartitionedCall/model_27/tf.reshape_23/Reshape",
          "PartitionedCall/model_27/tf.concat_38/concat/axis"
        ],
        "attr": {
          "T": { "type": "DT_FLOAT" },
          "N": { "i": "3" },
          "Tidx": { "type": "DT_INT32" }
        }
      },
      {
        "name": "PartitionedCall/model_27/tf.strided_slice_37/StridedSlice",
        "op": "StridedSlice",
        "input": [
          "PartitionedCall/model_27/tf.concat_38/concat",
          "27703",
          "27705",
          "PartitionedCall/model_27/tf.strided_slice_37/StridedSlice/strides"
        ],
        "attr": {
          "T": { "type": "DT_FLOAT" },
          "shrink_axis_mask": { "i": "0" },
          "Index": { "type": "DT_INT64" },
          "end_mask": { "i": "5" },
          "ellipsis_mask": { "i": "0" },
          "begin_mask": { "i": "5" },
          "new_axis_mask": { "i": "0" }
        }
      },
      {
        "name": "PartitionedCall/model_27/tf.strided_slice_36/StridedSlice",
        "op": "StridedSlice",
        "input": [
          "PartitionedCall/model_27/tf.concat_38/concat",
          "27683",
          "27685",
          "PartitionedCall/model_27/tf.strided_slice_36/StridedSlice/strides"
        ],
        "attr": {
          "T": { "type": "DT_FLOAT" },
          "Index": { "type": "DT_INT64" },
          "ellipsis_mask": { "i": "0" },
          "shrink_axis_mask": { "i": "0" },
          "begin_mask": { "i": "7" },
          "end_mask": { "i": "5" },
          "new_axis_mask": { "i": "0" }
        }
      },
      {
        "name": "PartitionedCall/model_27/tf.math.sigmoid_115/Sigmoid",
        "op": "Sigmoid",
        "input": ["PartitionedCall/model_27/tf.strided_slice_37/StridedSlice"],
        "attr": { "T": { "type": "DT_FLOAT" } }
      },
      {
        "name": "PartitionedCall/model_27/tf.reshape_26/Reshape",
        "op": "Reshape",
        "input": [
          "PartitionedCall/model_27/tf.strided_slice_36/StridedSlice",
          "PartitionedCall/model_27/tf.reshape_26/Reshape/shape"
        ],
        "attr": {
          "Tshape": { "type": "DT_INT32" },
          "T": { "type": "DT_FLOAT" }
        }
      },
      {
        "name": "PartitionedCall/model_27/tf.compat.v1.transpose_47/transpose",
        "op": "Transpose",
        "input": [
          "PartitionedCall/model_27/tf.reshape_26/Reshape",
          "PartitionedCall/model_27/tf.compat.v1.transpose_47/transpose/perm"
        ],
        "attr": { "Tperm": { "type": "DT_INT32" }, "T": { "type": "DT_FLOAT" } }
      },
      {
        "name": "PartitionedCall/model_27/tf.compat.v1.transpose_48/transpose",
        "op": "Transpose",
        "input": [
          "PartitionedCall/model_27/tf.compat.v1.transpose_47/transpose",
          "PartitionedCall/model_27/tf.compat.v1.transpose_48/transpose/perm"
        ],
        "attr": { "Tperm": { "type": "DT_INT32" }, "T": { "type": "DT_FLOAT" } }
      },
      {
        "name": "PartitionedCall/model_27/tf.nn.softmax_1//model.22/dfl/Softmax",
        "op": "Softmax",
        "input": [
          "PartitionedCall/model_27/tf.compat.v1.transpose_48/transpose"
        ],
        "attr": { "T": { "type": "DT_FLOAT" } }
      },
      {
        "name": "PartitionedCall/model_27/tf.nn.convolution_127/convolution",
        "op": "Conv2D",
        "input": [
          "PartitionedCall/model_27/tf.nn.softmax_1//model.22/dfl/Softmax",
          "27687"
        ],
        "device": "/device:CPU:0",
        "attr": {
          "dilations": { "list": { "i": ["1", "1", "1", "1"] } },
          "data_format": { "s": "TkhXQw==" },
          "explicit_paddings": { "list": {} },
          "padding": { "s": "U0FNRQ==" },
          "use_cudnn_on_gpu": { "b": true },
          "T": { "type": "DT_FLOAT" },
          "strides": { "list": { "i": ["1", "1", "1", "1"] } }
        }
      },
      {
        "name": "PartitionedCall/model_27/tf.compat.v1.transpose_53/transpose",
        "op": "Transpose",
        "input": [
          "PartitionedCall/model_27/tf.nn.convolution_127/convolution",
          "PartitionedCall/model_27/tf.compat.v1.transpose_53/transpose/perm"
        ],
        "attr": { "T": { "type": "DT_FLOAT" }, "Tperm": { "type": "DT_INT32" } }
      },
      {
        "name": "PartitionedCall/model_27/tf.reshape_29/Reshape",
        "op": "Reshape",
        "input": [
          "PartitionedCall/model_27/tf.compat.v1.transpose_53/transpose",
          "PartitionedCall/model_27/tf.reshape_29/Reshape/shape"
        ],
        "attr": {
          "T": { "type": "DT_FLOAT" },
          "Tshape": { "type": "DT_INT32" }
        }
      },
      {
        "name": "PartitionedCall/model_27/tf.strided_slice_39/StridedSlice",
        "op": "StridedSlice",
        "input": [
          "PartitionedCall/model_27/tf.reshape_29/Reshape",
          "27689",
          "27691",
          "PartitionedCall/model_27/tf.strided_slice_39/ones_like"
        ],
        "attr": {
          "shrink_axis_mask": { "i": "0" },
          "Index": { "type": "DT_INT64" },
          "begin_mask": { "i": "5" },
          "new_axis_mask": { "i": "0" },
          "ellipsis_mask": { "i": "0" },
          "end_mask": { "i": "5" },
          "T": { "type": "DT_FLOAT" }
        }
      },
      {
        "name": "PartitionedCall/model_27/tf.strided_slice_38/StridedSlice",
        "op": "StridedSlice",
        "input": [
          "PartitionedCall/model_27/tf.reshape_29/Reshape",
          "27693",
          "27695",
          "PartitionedCall/model_27/tf.strided_slice_38/ones_like"
        ],
        "attr": {
          "T": { "type": "DT_FLOAT" },
          "shrink_axis_mask": { "i": "0" },
          "end_mask": { "i": "5" },
          "new_axis_mask": { "i": "0" },
          "Index": { "type": "DT_INT64" },
          "begin_mask": { "i": "7" },
          "ellipsis_mask": { "i": "0" }
        }
      },
      {
        "name": "PartitionedCall/model_27/tf.math.add_152/Add",
        "op": "AddV2",
        "input": [
          "27697",
          "PartitionedCall/model_27/tf.strided_slice_39/StridedSlice"
        ],
        "attr": { "T": { "type": "DT_FLOAT" } }
      },
      {
        "name": "PartitionedCall/model_27/tf.math.subtract_2/Sub",
        "op": "Sub",
        "input": [
          "27699",
          "PartitionedCall/model_27/tf.strided_slice_38/StridedSlice"
        ],
        "attr": { "T": { "type": "DT_FLOAT" } }
      },
      {
        "name": "PartitionedCall/model_27/tf.math.add_153/Add",
        "op": "AddV2",
        "input": [
          "PartitionedCall/model_27/tf.math.subtract_2/Sub",
          "PartitionedCall/model_27/tf.math.add_152/Add"
        ],
        "attr": { "T": { "type": "DT_FLOAT" } }
      },
      {
        "name": "PartitionedCall/model_27/tf.math.subtract_3/Sub",
        "op": "Sub",
        "input": [
          "PartitionedCall/model_27/tf.math.add_152/Add",
          "PartitionedCall/model_27/tf.math.subtract_2/Sub"
        ],
        "attr": { "T": { "type": "DT_FLOAT" } }
      },
      {
        "name": "PartitionedCall/model_27/tf.math.divide_1/truediv",
        "op": "Mul",
        "input": [
          "PartitionedCall/model_27/tf.math.add_153/Add",
          "ConstantFolding/PartitionedCall/model_27/tf.math.divide_1/truediv_recip"
        ],
        "attr": { "T": { "type": "DT_FLOAT" } }
      },
      {
        "name": "PartitionedCall/model_27/tf.concat_42/concat",
        "op": "ConcatV2",
        "input": [
          "PartitionedCall/model_27/tf.math.divide_1/truediv",
          "PartitionedCall/model_27/tf.math.subtract_3/Sub",
          "PartitionedCall/model_27/tf.concat_42/concat/axis"
        ],
        "attr": {
          "Tidx": { "type": "DT_INT32" },
          "N": { "i": "2" },
          "T": { "type": "DT_FLOAT" }
        }
      },
      {
        "name": "PartitionedCall/model_27/tf.math.multiply_505/Mul",
        "op": "Mul",
        "input": [
          "PartitionedCall/model_27/tf.concat_42/concat",
          "PartitionedCall/model_27/tf.math.multiply_505/Mul/y"
        ],
        "attr": { "T": { "type": "DT_FLOAT" } }
      },
      {
        "name": "PartitionedCall/model_27/output0/concat",
        "op": "ConcatV2",
        "input": [
          "PartitionedCall/model_27/tf.math.multiply_505/Mul",
          "PartitionedCall/model_27/tf.math.sigmoid_115/Sigmoid",
          "PartitionedCall/model_27/output0/concat/axis"
        ],
        "attr": {
          "Tidx": { "type": "DT_INT32" },
          "N": { "i": "2" },
          "T": { "type": "DT_FLOAT" }
        }
      },
      {
        "name": "Identity",
        "op": "Identity",
        "input": ["PartitionedCall/model_27/output0/concat"],
        "attr": { "T": { "type": "DT_FLOAT" } }
      }
    ],
    "library": {},
    "versions": { "producer": 1882 }
  },
  "weightsManifest": [
    {
      "paths": [
        "group1-shard1of11.bin",
        "group1-shard2of11.bin",
        "group1-shard3of11.bin",
        "group1-shard4of11.bin",
        "group1-shard5of11.bin",
        "group1-shard6of11.bin",
        "group1-shard7of11.bin",
        "group1-shard8of11.bin",
        "group1-shard9of11.bin",
        "group1-shard10of11.bin",
        "group1-shard11of11.bin"
      ],
      "weights": [
        {
          "name": "ConstantFolding/PartitionedCall/model_27/tf.math.divide_1/truediv_recip",
          "shape": [1, 1, 1],
          "dtype": "float32"
        },
        { "name": "27697", "shape": [1, 2, 8400], "dtype": "float32" },
        { "name": "27689", "shape": [3], "dtype": "int32" },
        { "name": "27691", "shape": [3], "dtype": "int32" },
        {
          "name": "PartitionedCall/model_27/tf.strided_slice_39/ones_like",
          "shape": [3],
          "dtype": "int32"
        },
        { "name": "27699", "shape": [1, 2, 8400], "dtype": "float32" },
        { "name": "27683", "shape": [3], "dtype": "int32" },
        { "name": "27685", "shape": [3], "dtype": "int32" },
        {
          "name": "PartitionedCall/model_27/tf.strided_slice_36/StridedSlice/strides",
          "shape": [3],
          "dtype": "int32"
        },
        {
          "name": "PartitionedCall/model_27/tf.reshape_26/Reshape/shape",
          "shape": [4],
          "dtype": "int32"
        },
        {
          "name": "PartitionedCall/model_27/tf.compat.v1.transpose_47/transpose/perm",
          "shape": [4],
          "dtype": "int32"
        },
        {
          "name": "PartitionedCall/model_27/tf.compat.v1.transpose_48/transpose/perm",
          "shape": [4],
          "dtype": "int32"
        },
        { "name": "27687", "shape": [1, 1, 16, 1], "dtype": "float32" },
        {
          "name": "PartitionedCall/model_27/tf.compat.v1.transpose_53/transpose/perm",
          "shape": [4],
          "dtype": "int32"
        },
        {
          "name": "PartitionedCall/model_27/tf.reshape_29/Reshape/shape",
          "shape": [3],
          "dtype": "int32"
        },
        { "name": "27693", "shape": [3], "dtype": "int32" },
        { "name": "27695", "shape": [3], "dtype": "int32" },
        {
          "name": "PartitionedCall/model_27/tf.strided_slice_38/ones_like",
          "shape": [3],
          "dtype": "int32"
        },
        {
          "name": "PartitionedCall/model_27/tf.concat_42/concat/axis",
          "shape": [],
          "dtype": "int32"
        },
        {
          "name": "PartitionedCall/model_27/tf.math.multiply_505/Mul/y",
          "shape": [1, 1, 8400],
          "dtype": "float32"
        },
        { "name": "27621", "shape": [3, 3, 128, 64], "dtype": "float32" },
        { "name": "27633", "shape": [64], "dtype": "float32" },
        { "name": "27645", "shape": [3, 3, 64, 64], "dtype": "float32" },
        { "name": "27657", "shape": [64], "dtype": "float32" },
        { "name": "27669", "shape": [1, 1, 64, 64], "dtype": "float32" },
        { "name": "27679", "shape": [64], "dtype": "float32" },
        { "name": "27619", "shape": [3, 3, 128, 128], "dtype": "float32" },
        { "name": "27631", "shape": [128], "dtype": "float32" },
        { "name": "27643", "shape": [3, 3, 128, 128], "dtype": "float32" },
        { "name": "27655", "shape": [128], "dtype": "float32" },
        { "name": "27667", "shape": [1, 1, 128, 5], "dtype": "float32" },
        { "name": "27681", "shape": [5], "dtype": "float32" },
        {
          "name": "PartitionedCall/model_27/tf.concat_32/concat/axis",
          "shape": [],
          "dtype": "int32"
        },
        {
          "name": "PartitionedCall/model_27/tf.compat.v1.transpose_30/transpose/perm",
          "shape": [4],
          "dtype": "int32"
        },
        {
          "name": "PartitionedCall/model_27/tf.reshape_17/Reshape/shape",
          "shape": [3],
          "dtype": "int32"
        },
        { "name": "27617", "shape": [3, 3, 256, 64], "dtype": "float32" },
        { "name": "27629", "shape": [64], "dtype": "float32" },
        { "name": "27641", "shape": [3, 3, 64, 64], "dtype": "float32" },
        { "name": "27653", "shape": [64], "dtype": "float32" },
        { "name": "27665", "shape": [1, 1, 64, 64], "dtype": "float32" },
        { "name": "27675", "shape": [64], "dtype": "float32" },
        { "name": "27615", "shape": [3, 3, 256, 128], "dtype": "float32" },
        { "name": "27627", "shape": [128], "dtype": "float32" },
        { "name": "27639", "shape": [3, 3, 128, 128], "dtype": "float32" },
        { "name": "27651", "shape": [128], "dtype": "float32" },
        { "name": "27663", "shape": [1, 1, 128, 5], "dtype": "float32" },
        { "name": "27677", "shape": [5], "dtype": "float32" },
        {
          "name": "PartitionedCall/model_27/tf.concat_35/concat/axis",
          "shape": [],
          "dtype": "int32"
        },
        {
          "name": "PartitionedCall/model_27/tf.compat.v1.transpose_35/transpose/perm",
          "shape": [4],
          "dtype": "int32"
        },
        {
          "name": "PartitionedCall/model_27/tf.reshape_20/Reshape/shape",
          "shape": [3],
          "dtype": "int32"
        },
        { "name": "27613", "shape": [3, 3, 512, 64], "dtype": "float32" },
        { "name": "27625", "shape": [64], "dtype": "float32" },
        { "name": "27637", "shape": [3, 3, 64, 64], "dtype": "float32" },
        { "name": "27649", "shape": [64], "dtype": "float32" },
        { "name": "27661", "shape": [1, 1, 64, 64], "dtype": "float32" },
        { "name": "27671", "shape": [64], "dtype": "float32" },
        { "name": "27603", "shape": [4], "dtype": "int32" },
        { "name": "27605", "shape": [4], "dtype": "int32" },
        {
          "name": "PartitionedCall/model_27/tf.strided_slice_34/ones_like",
          "shape": [4],
          "dtype": "int32"
        },
        { "name": "27573", "shape": [4], "dtype": "int32" },
        { "name": "27575", "shape": [4], "dtype": "int32" },
        {
          "name": "PartitionedCall/model_27/tf.strided_slice_32/ones_like",
          "shape": [4],
          "dtype": "int32"
        },
        { "name": "27543", "shape": [4], "dtype": "int32" },
        { "name": "27545", "shape": [4], "dtype": "int32" },
        {
          "name": "PartitionedCall/model_27/tf.strided_slice_30/ones_like",
          "shape": [4],
          "dtype": "int32"
        },
        {
          "name": "PartitionedCall/model_27/tf.image.resize_3/resize/size",
          "shape": [2],
          "dtype": "int32"
        },
        {
          "name": "PartitionedCall/model_27/tf.concat_29/concat/axis",
          "shape": [],
          "dtype": "int32"
        },
        { "name": "27527", "shape": [1, 1, 384, 128], "dtype": "float32" },
        { "name": "27529", "shape": [128], "dtype": "float32" },
        { "name": "27531", "shape": [4], "dtype": "int32" },
        { "name": "27533", "shape": [4], "dtype": "int32" },
        {
          "name": "PartitionedCall/model_27/tf.strided_slice_31/ones_like",
          "shape": [4],
          "dtype": "int32"
        },
        { "name": "27535", "shape": [3, 3, 64, 64], "dtype": "float32" },
        { "name": "27537", "shape": [64], "dtype": "float32" },
        { "name": "27539", "shape": [3, 3, 64, 64], "dtype": "float32" },
        { "name": "27541", "shape": [64], "dtype": "float32" },
        {
          "name": "PartitionedCall/model_27/tf.concat_30/concat/axis",
          "shape": [],
          "dtype": "int32"
        },
        { "name": "27547", "shape": [1, 1, 192, 128], "dtype": "float32" },
        { "name": "27549", "shape": [128], "dtype": "float32" },
        { "name": "27551", "shape": [4, 2], "dtype": "int32" },
        { "name": "27553", "shape": [3, 3, 128, 128], "dtype": "float32" },
        { "name": "27555", "shape": [128], "dtype": "float32" },
        { "name": "27519", "shape": [4], "dtype": "int32" },
        { "name": "27521", "shape": [4], "dtype": "int32" },
        {
          "name": "PartitionedCall/model_27/tf.strided_slice_28/ones_like",
          "shape": [4],
          "dtype": "int32"
        },
        {
          "name": "PartitionedCall/model_27/tf.image.resize_2/resize/size",
          "shape": [2],
          "dtype": "int32"
        },
        {
          "name": "PartitionedCall/model_27/tf.concat_27/concat/axis",
          "shape": [],
          "dtype": "int32"
        },
        { "name": "27503", "shape": [1, 1, 768, 256], "dtype": "float32" },
        { "name": "27505", "shape": [256], "dtype": "float32" },
        { "name": "27507", "shape": [4], "dtype": "int32" },
        { "name": "27509", "shape": [4], "dtype": "int32" },
        {
          "name": "PartitionedCall/model_27/tf.strided_slice_29/ones_like",
          "shape": [4],
          "dtype": "int32"
        },
        { "name": "27511", "shape": [3, 3, 128, 128], "dtype": "float32" },
        { "name": "27513", "shape": [128], "dtype": "float32" },
        { "name": "27515", "shape": [3, 3, 128, 128], "dtype": "float32" },
        { "name": "27517", "shape": [128], "dtype": "float32" },
        {
          "name": "PartitionedCall/model_27/tf.concat_28/concat/axis",
          "shape": [],
          "dtype": "int32"
        },
        { "name": "27523", "shape": [1, 1, 384, 256], "dtype": "float32" },
        { "name": "27525", "shape": [256], "dtype": "float32" },
        {
          "name": "PartitionedCall/model_27/tf.concat_31/concat/axis",
          "shape": [],
          "dtype": "int32"
        },
        { "name": "27557", "shape": [1, 1, 384, 256], "dtype": "float32" },
        { "name": "27559", "shape": [256], "dtype": "float32" },
        { "name": "27561", "shape": [4], "dtype": "int32" },
        { "name": "27563", "shape": [4], "dtype": "int32" },
        {
          "name": "PartitionedCall/model_27/tf.strided_slice_33/ones_like",
          "shape": [4],
          "dtype": "int32"
        },
        { "name": "27565", "shape": [3, 3, 128, 128], "dtype": "float32" },
        { "name": "27567", "shape": [128], "dtype": "float32" },
        { "name": "27569", "shape": [3, 3, 128, 128], "dtype": "float32" },
        { "name": "27571", "shape": [128], "dtype": "float32" },
        {
          "name": "PartitionedCall/model_27/tf.concat_33/concat/axis",
          "shape": [],
          "dtype": "int32"
        },
        { "name": "27577", "shape": [1, 1, 384, 256], "dtype": "float32" },
        { "name": "27579", "shape": [256], "dtype": "float32" },
        { "name": "27581", "shape": [4, 2], "dtype": "int32" },
        { "name": "27583", "shape": [3, 3, 256, 256], "dtype": "float32" },
        { "name": "27585", "shape": [256], "dtype": "float32" },
        { "name": "27487", "shape": [4], "dtype": "int32" },
        { "name": "27489", "shape": [4], "dtype": "int32" },
        {
          "name": "PartitionedCall/model_27/tf.strided_slice_26/ones_like",
          "shape": [4],
          "dtype": "int32"
        },
        { "name": "27457", "shape": [4], "dtype": "int32" },
        { "name": "27459", "shape": [4], "dtype": "int32" },
        {
          "name": "PartitionedCall/model_27/tf.strided_slice_24/ones_like",
          "shape": [4],
          "dtype": "int32"
        },
        { "name": "27419", "shape": [4], "dtype": "int32" },
        { "name": "27421", "shape": [4], "dtype": "int32" },
        {
          "name": "PartitionedCall/model_27/tf.strided_slice_22/ones_like",
          "shape": [4],
          "dtype": "int32"
        },
        { "name": "27381", "shape": [4], "dtype": "int32" },
        { "name": "27383", "shape": [4], "dtype": "int32" },
        {
          "name": "PartitionedCall/model_27/tf.strided_slice_20/ones_like",
          "shape": [4],
          "dtype": "int32"
        },
        { "name": "27353", "shape": [4, 2], "dtype": "int32" },
        { "name": "27355", "shape": [3, 3, 3, 32], "dtype": "float32" },
        { "name": "27357", "shape": [32], "dtype": "float32" },
        { "name": "27359", "shape": [4, 2], "dtype": "int32" },
        { "name": "27361", "shape": [3, 3, 32, 64], "dtype": "float32" },
        { "name": "27363", "shape": [64], "dtype": "float32" },
        { "name": "27365", "shape": [1, 1, 64, 64], "dtype": "float32" },
        { "name": "27367", "shape": [64], "dtype": "float32" },
        { "name": "27369", "shape": [4], "dtype": "int32" },
        { "name": "27371", "shape": [4], "dtype": "int32" },
        {
          "name": "PartitionedCall/model_27/tf.strided_slice_21/ones_like",
          "shape": [4],
          "dtype": "int32"
        },
        { "name": "27373", "shape": [3, 3, 32, 32], "dtype": "float32" },
        { "name": "27375", "shape": [32], "dtype": "float32" },
        { "name": "27377", "shape": [3, 3, 32, 32], "dtype": "float32" },
        { "name": "27379", "shape": [32], "dtype": "float32" },
        {
          "name": "PartitionedCall/model_27/tf.concat_22/concat/axis",
          "shape": [],
          "dtype": "int32"
        },
        { "name": "27385", "shape": [1, 1, 96, 64], "dtype": "float32" },
        { "name": "27387", "shape": [64], "dtype": "float32" },
        { "name": "27389", "shape": [4, 2], "dtype": "int32" },
        { "name": "27391", "shape": [3, 3, 64, 128], "dtype": "float32" },
        { "name": "27393", "shape": [128], "dtype": "float32" },
        { "name": "27395", "shape": [1, 1, 128, 128], "dtype": "float32" },
        { "name": "27397", "shape": [128], "dtype": "float32" },
        { "name": "27399", "shape": [4], "dtype": "int32" },
        { "name": "27401", "shape": [4], "dtype": "int32" },
        {
          "name": "PartitionedCall/model_27/tf.strided_slice_23/ones_like",
          "shape": [4],
          "dtype": "int32"
        },
        { "name": "27403", "shape": [3, 3, 64, 64], "dtype": "float32" },
        { "name": "27405", "shape": [64], "dtype": "float32" },
        { "name": "27407", "shape": [3, 3, 64, 64], "dtype": "float32" },
        { "name": "27409", "shape": [64], "dtype": "float32" },
        { "name": "27411", "shape": [3, 3, 64, 64], "dtype": "float32" },
        { "name": "27413", "shape": [64], "dtype": "float32" },
        { "name": "27415", "shape": [3, 3, 64, 64], "dtype": "float32" },
        { "name": "27417", "shape": [64], "dtype": "float32" },
        {
          "name": "PartitionedCall/model_27/tf.concat_23/concat/axis",
          "shape": [],
          "dtype": "int32"
        },
        { "name": "27423", "shape": [1, 1, 256, 128], "dtype": "float32" },
        { "name": "27425", "shape": [128], "dtype": "float32" },
        { "name": "27427", "shape": [4, 2], "dtype": "int32" },
        { "name": "27429", "shape": [3, 3, 128, 256], "dtype": "float32" },
        { "name": "27431", "shape": [256], "dtype": "float32" },
        { "name": "27433", "shape": [1, 1, 256, 256], "dtype": "float32" },
        { "name": "27435", "shape": [256], "dtype": "float32" },
        { "name": "27437", "shape": [4], "dtype": "int32" },
        { "name": "27439", "shape": [4], "dtype": "int32" },
        {
          "name": "PartitionedCall/model_27/tf.strided_slice_25/ones_like",
          "shape": [4],
          "dtype": "int32"
        },
        { "name": "27441", "shape": [3, 3, 128, 128], "dtype": "float32" },
        { "name": "27443", "shape": [128], "dtype": "float32" },
        { "name": "27445", "shape": [3, 3, 128, 128], "dtype": "float32" },
        { "name": "27447", "shape": [128], "dtype": "float32" },
        { "name": "27449", "shape": [3, 3, 128, 128], "dtype": "float32" },
        { "name": "27451", "shape": [128], "dtype": "float32" },
        { "name": "27453", "shape": [3, 3, 128, 128], "dtype": "float32" },
        { "name": "27455", "shape": [128], "dtype": "float32" },
        {
          "name": "PartitionedCall/model_27/tf.concat_24/concat/axis",
          "shape": [],
          "dtype": "int32"
        },
        { "name": "27461", "shape": [1, 1, 512, 256], "dtype": "float32" },
        { "name": "27463", "shape": [256], "dtype": "float32" },
        { "name": "27465", "shape": [4, 2], "dtype": "int32" },
        { "name": "27467", "shape": [3, 3, 256, 512], "dtype": "float32" },
        { "name": "27469", "shape": [512], "dtype": "float32" },
        { "name": "27471", "shape": [1, 1, 512, 512], "dtype": "float32" },
        { "name": "27473", "shape": [512], "dtype": "float32" },
        { "name": "27475", "shape": [4], "dtype": "int32" },
        { "name": "27477", "shape": [4], "dtype": "int32" },
        {
          "name": "PartitionedCall/model_27/tf.strided_slice_27/ones_like",
          "shape": [4],
          "dtype": "int32"
        },
        { "name": "27479", "shape": [3, 3, 256, 256], "dtype": "float32" },
        { "name": "27481", "shape": [256], "dtype": "float32" },
        { "name": "27483", "shape": [3, 3, 256, 256], "dtype": "float32" },
        { "name": "27485", "shape": [256], "dtype": "float32" },
        {
          "name": "PartitionedCall/model_27/tf.concat_25/concat/axis",
          "shape": [],
          "dtype": "int32"
        },
        { "name": "27491", "shape": [1, 1, 768, 512], "dtype": "float32" },
        { "name": "27493", "shape": [512], "dtype": "float32" },
        { "name": "27495", "shape": [1, 1, 512, 256], "dtype": "float32" },
        { "name": "27497", "shape": [256], "dtype": "float32" },
        {
          "name": "PartitionedCall/model_27/tf.concat_26/concat/axis",
          "shape": [],
          "dtype": "int32"
        },
        { "name": "27499", "shape": [1, 1, 1024, 512], "dtype": "float32" },
        { "name": "27501", "shape": [512], "dtype": "float32" },
        {
          "name": "PartitionedCall/model_27/tf.concat_34/concat/axis",
          "shape": [],
          "dtype": "int32"
        },
        { "name": "27587", "shape": [1, 1, 768, 512], "dtype": "float32" },
        { "name": "27589", "shape": [512], "dtype": "float32" },
        { "name": "27591", "shape": [4], "dtype": "int32" },
        { "name": "27593", "shape": [4], "dtype": "int32" },
        {
          "name": "PartitionedCall/model_27/tf.strided_slice_35/ones_like",
          "shape": [4],
          "dtype": "int32"
        },
        { "name": "27595", "shape": [3, 3, 256, 256], "dtype": "float32" },
        { "name": "27597", "shape": [256], "dtype": "float32" },
        { "name": "27599", "shape": [3, 3, 256, 256], "dtype": "float32" },
        { "name": "27601", "shape": [256], "dtype": "float32" },
        {
          "name": "PartitionedCall/model_27/tf.concat_36/concat/axis",
          "shape": [],
          "dtype": "int32"
        },
        { "name": "27607", "shape": [1, 1, 768, 512], "dtype": "float32" },
        { "name": "27609", "shape": [512], "dtype": "float32" },
        { "name": "27611", "shape": [3, 3, 512, 128], "dtype": "float32" },
        { "name": "27623", "shape": [128], "dtype": "float32" },
        { "name": "27635", "shape": [3, 3, 128, 128], "dtype": "float32" },
        { "name": "27647", "shape": [128], "dtype": "float32" },
        { "name": "27659", "shape": [1, 1, 128, 5], "dtype": "float32" },
        { "name": "27673", "shape": [5], "dtype": "float32" },
        {
          "name": "PartitionedCall/model_27/tf.concat_37/concat/axis",
          "shape": [],
          "dtype": "int32"
        },
        {
          "name": "PartitionedCall/model_27/tf.compat.v1.transpose_40/transpose/perm",
          "shape": [4],
          "dtype": "int32"
        },
        {
          "name": "PartitionedCall/model_27/tf.reshape_23/Reshape/shape",
          "shape": [3],
          "dtype": "int32"
        },
        {
          "name": "PartitionedCall/model_27/tf.concat_38/concat/axis",
          "shape": [],
          "dtype": "int32"
        },
        { "name": "27703", "shape": [3], "dtype": "int32" },
        { "name": "27705", "shape": [3], "dtype": "int32" },
        {
          "name": "PartitionedCall/model_27/tf.strided_slice_37/StridedSlice/strides",
          "shape": [3],
          "dtype": "int32"
        },
        {
          "name": "PartitionedCall/model_27/output0/concat/axis",
          "shape": [],
          "dtype": "int32"
        }
      ]
    }
  ]
}
